task3/result/q1_model.pt (torch, 596570 bytes, 28 tensors)

conv1.weight f4 [16, 3, 7, 7]
-0.09394965 -0.05261527 -0.098122865 -0.019093702 -0.11411725 0.022553954 -0.09914341 -0.1150323
-0.09712882 -0.011304682 -0.07049135 -0.004384988 -0.10014854 -0.085109346 -0.07173836 -0.05080147
-0.098598555 0.024355426 -0.041076224 0.009210815 0.032490887 -0.012155155 0.0036549803 0.05825491
-0.050094657 0.018952733 -0.040249597 0.04649933 0.059993953 -0.07222935 0.07025856 0.046549074
0.050681427 0.052414197 0.077230394 0.006340935 -0.0431977 0.0011776409 -0.02583705 0.04451399
0.027204048 -0.010402255 0.02606196 0.11871073 0.03553027 0.052634098 0.044408523 0.07283171
0.124568224 0.0036168972 -0.009311294 -0.020333372 -0.0104841795 0.007644656 -0.029186055 -0.099403635
-0.088726595 0.040153466 -0.025505489 -0.08720807 -0.0024949557 0.055725228 -0.09728857 -0.089133695
-0.05565363 -0.01774466 -0.032487318 -0.014606176 -0.08216657 0.024802735 0.04644889 0.0376454
-0.06973701 -0.06804659 0.038507435 0.008503574 0.029073562 -0.09163046 -0.0023350783 0.06077182
0.049581505 0.022734098 0.038332332 0.0017749184 -0.04300651 -0.015098859 -0.031122528 0.09589253
0.08081172 0.066846006 -0.03681762 0.0717287 0.046564862 0.0832347 0.0037463924 0.06159889
0.12597834 0.08968126 0.0483127 -0.03061385 0.046014566 -0.07771261 -0.0058704787 -0.059324127
-0.041193165 -0.032422714 -0.000932099 0.064169735 0.03478083 -0.006344401 0.050492283 -0.062106628
0.031689078 -0.011138092 -0.019390259 0.007230423 -0.062781595 0.0074904067 0.010532978 0.062091384
-0.024639938 0.028605284 0.08614962 -0.02964919 0.08084913 -0.052756242 0.033884928 0.03993561
0.02842452 0.07402949 -0.020257397 0.032123078 -0.0042132274 -0.061354976 -0.009640432 -0.04426336
0.051103607 0.026241107 0.024924431 -0.022190895 -0.004655603 -0.021630643 0.030569304 0.0920861
0.029267764 -0.021860907 -0.048850805 0.03716723 -0.01897033 -0.015931206 -0.0014716955 0.018035349
0.049960375 0.09860341 0.043674037 0.087190285 -0.021144547 0.047509354 -0.03429684 0.08990068
0.062313695 0.07292442 -0.0538793 0.0757929 0.09183002 0.0898711 0.04480376 0.11607513
0.039991017 0.054657027 -0.0071910527 -0.052370857 0.012326201 0.039767526 -0.018125819 -0.073258154
-0.09974162 -0.0478344 0.06212198 0.008256092 0.0018750196 0.026517145 0.013448341 -0.109442495
-0.100808255 -0.057332598 -0.071525 0.028791783 0.06325688 -0.11751229 -0.11259893 -0.12639663
-0.012709356 0.027954405 -0.09146474 -0.047088504 0.03578838 -0.030377641 0.09869227 0.058339152
0.014427209 0.04536083 0.06849548 -0.038178224 -0.058004495 0.013918816 0.028934665 0.031742092
0.026882404 0.098601185 -0.04797925 -0.020034738 0.028344577 -0.040562943 0.038197342 0.012646483
0.083420634 -0.07481371 -0.017342623 -0.006134384 -0.06365718 -0.050354846 0.05598478 0.019391136
0.013464495 -0.1100464 -0.06649906 -0.07987534 0.028563503 0.010092403 0.018621346 -0.053022787
-0.10168524 -0.013301175 -0.02360639 -0.072532505 0.029912587 0.021278039 -0.11031022 0.009131295
0.0065859747 -0.046900652 -0.078845315 -0.0045899414 0.077564836 0.081814915 -0.044290088 -0.01809801
0.08747134 0.05667464 0.06497243 -0.029589493 0.06301889 -0.06324278 0.0033577778 0.016663814
00000000: ad68 c0bd 1c83 57bd a4f4 c8bd 656a 9cbc
00000010: 4eb6 e9bd 12c3 b83c b30b cbbd 0e96 ebbd
00000020: 7aeb c6bd 4637 39bc c55d 90bd f2af 8fbb
00000030: ae1a cdbd cf4d aebd 90eb 92bd 3415 50bd
00000040: 0aee c9bd 0885 c73c 8b3f 28bd f5e8 163c
00000050: 2a15 053d 6a26 47bc 6588 6f3b b39c 6e3d
00000060: 0e30 4dbd c342 9b3c c3dc 24bd 1576 3e3d
00000070: 38bc 753d fbec 93bd b8e3 8f3d 3eaa 3e3d
00000080: 5497 4f3d 45b0 563d f82a 9e3d 9ec7 cf3b
00000090: 12f0 30bd 125b 9a3a 39a8 d3bc 4d54 363d
000000a0: 06db de3c 386e 2abc e47f d53c 9c1e f33d
000000b0: 3088 113d da96 573d b6e5 353d cb28 953d
000000c0: a01d ff3d 7709 6d3b 668e 18bc 2c92 a6bc
000000d0: d6c5 2bbc 0680 fa3b 9817 efbc 2294 cbbd
000000e0: 4ab6 b5bd f677 243d e3f0 d0bc 259a b2bd
000000f0: 6982 23bb 2340 643d 3b3f c7bd ba8b b6bd
00000100: 10f5 63bd 405d 91bc 6c11 05bd be4e 6fbc
00000110: f246 a8bd 1b2f cb3c 3141 3e3d 1032 1a3d
00000120: 47d2 8ebd 035c 8bbd f9b9 1d3d 9352 0b3c
00000130: ae2b ee3c c0a8 bbbd 1d08 19bb dfeb 783d
00000140: fa15 4b3d dc3c ba3c 5d02 1d3d 61a4 e83a
00000150: 9827 30bd 3461 77bc acf4 febc 4e63 c43d
00000160: 9d80 a53d 8fe6 883d 13ce 16bd 7fe6 923d
00000170: ccba 3e3d f476 aa3d 0986 753b 1e4f 7c3d
00000180: 7700 013e cfaa b73d 8ae3 453d e6c9 fabc
00000190: c579 3c3d ca27 9fbd 255d c0bb dbfd 72bd
000001a0: 2aba 28bd aecd 04bd 1b58 74ba 6c6b 833d
000001b0: 5876 0e3d b1e4 cfbb ffd0 4e3d 8563 7ebd
000001c0: 68cc 013d 8b7c 36bc 52d8 9ebc 2fed ec3b
000001d0: a393 80bd 1672 f53b 8392 2c3c 8953 7e3d
000001e0: b2d9 c9bc a155 ea3c 366f b03d dce2 f2bc
000001f0: 3b94 a53d ee16 58bd ecca 0a3d 8693 233d
00000200: 8ada e83c c69c 973d d7f2 a5bc 7d93 033d
00000210: 1d0f 8abb 5b4f 7bbd e7f2 1dbc 7f4d 35bd
00000220: 0452 513d 97f7 d63c 522e cc3c aec9 b5bc
00000230: 078e 98bb bf32 b1bc 7a6c fa3c a397 bc3d
00000240: f3c2 ef3c a515 b3bc c817 48bd aa3c 183d
00000250: aa67 9bbc 2982 82bc e8e5 c0ba debe 933c
00000260: 40a3 4c3d 96f0 c93d 8ce3 323d d290 b23d
00000270: 5437 adbc 2b99 423d d87a 0cbd d91d b83d
00000280: a53c 7f3d 6659 953d 8ab0 5cbd 4f39 9b3d
00000290: 6111 bc3d 570e b83d 2684 373d ccb8 ed3d
000002a0: 9fcd 233d 0ce0 5f3d eca2 ebbb d382 56bd
000002b0: d6f3 493c 46e3 223d 997c 94bc 5f08 96bd
000002c0: 5645 ccbd 01ee 43bd 9e73 7e3d 8f44 073c
000002d0: 38c3 f53a 7c3a d93c 6e56 5c3c 6323 e0bd
000002e0: 8f74 cebd 96d5 6abd b37b 92bd bfdc eb3c
000002f0: d38c 813d 49aa f0bd 459a e6bd 1e6e 01be
00000300: e73a 50bc a300 e53c de51 bbbd e0df 40bd
00000310: d696 123d 88da f8bc 2c1f ca3d 09f5 6e3d
00000320: 1a60 6c3c 47cc 393d 5c47 8c3d c560 1cbd
00000330: 1f96 6dbd bf0b 643c 6408 ed3c ff03 023d
00000340: 7d38 dc3c 6bef c93d e485 44bd e41f a4bc
00000350: e332 e83c 5425 26bd d174 1c3d 3233 4f3c
00000360: 70d8 aa3d ee37 99bd 1e12 8ebc f102 c9bb
00000370: b25e 82bd e240 4ebd 4c50 653d 29da 9e3c
00000380: 2f9a 5c3c 0260 e1bd a930 88bd af95 a3bd
00000390: 02fe e93c 9b5a 253c cb8b 983c 6c2e 59bd
000003a0: 5a40 d0bd 2ced 59bc 3062 c1bc ec8b 94bd
000003b0: 3e0b f53c 484f ae3c 53ea e1bd 6d9b 153c
000003c0: 29cf d73b e61a 40bd a779 a1bd 3867 96bb
000003d0: 50da 9e3d 948e a73d 8669 35bd 4742 94bc
000003e0: 2d24 b33d ab23 683d 4410 853d aa65 f2bc
000003f0: 0c10 813d 6e85 81bd 2a0e 5c3b 8d82 883c

conv1.bias f4 [16]
0.05731075 0.039460797 -0.056802865 0.038275044 0.019998634 -0.03742026 -0.06826119 0.010289474
0.0074540023 -0.041146632 -0.06198353 -0.030140216 0.018731797 0.06286976 0.060204223 -0.036375362
00000000: adbe 6a3d a5a1 213d 1faa 68bd 4bc6 1c3d
00000010: 2dd4 a33c fd45 19bd 86cc 8bbd 2f95 283c
00000020: b440 f43b 5f89 28bd 71e2 7dbd 9de8 f6bc
00000030: 6d73 993c dcc1 803d b498 763d 55fe 14bd

bn1.weight f4 [16]
1.0049763 1.0432106 0.9584803 0.992181 0.98646325 1.0030836 1.0269839 0.96622527
0.95479256 0.967405 0.98133564 0.9548228 1.0705167 0.9857004 1.0264531 0.9502138
00000000: 10a3 803f ed87 853f f75e 753f 93ff 7d3f
00000010: db88 7c3f 0b65 803f 3574 833f 8a5a 773f
00000020: 496d 743f dba7 773f d038 7b3f 446f 743f
00000030: b106 893f dd56 7c3f d162 833f 3641 733f

bn1.bias f4 [16]
0.060650464 0.107493125 0.0111846225 0.048449043 0.04562641 0.08082057 0.13837624 0.039171334
-0.032537494 -0.013179146 -0.016039459 0.07918962 0.10924346 0.019321866 0.21991268 -0.0017025395
00000000: 9f6c 783d 5b25 dc3d b53f 373c 8172 463d
00000010: c2e2 3a3d 4185 a53d 80b2 0d3e 1f72 203d
00000020: 0946 05bd 58ed 57bc 2f65 83bc 2b2e a23d
00000030: 09bb df3d e448 9e3c ca30 613e bf27 dfba

bn1.running_mean f4 [16]
0.047890134 0.05198042 -0.08819804 0.0039143157 0.03211692 -0.03004928 -0.056297068 0.012378355
0.025389235 -0.06892586 -0.0247687 -0.0032324486 0.03317499 0.034290347 0.06898287 -0.1381851
00000000: 7228 443d 6ce9 543d 2da1 b4bd a943 803b
00000010: 088d 033d e829 f6bc c197 66bd 95ce 4a3c
00000020: 16fd cf3c 0029 8dbd bbe7 cabc 7dd7 53bb
00000030: 80e2 073d 0974 0c3d e446 8d3d 6580 0dbe

bn1.running_var f4 [16]
0.55559313 0.7253006 0.13593036 0.82327497 0.3397025 0.22625619 0.5628624 0.2626328
0.16330047 0.07139461 0.32195467 0.45125216 0.6954256 0.3398997 0.6077027 0.8127215
00000000: 5a3b 0e3f 4dad 393f 5431 0b3e 26c2 523f
00000010: 7ced ad3e b4af 673e c017 103f ce77 863e
00000020: 3d38 273e 5637 923d 3ed7 a43e 860a e73e
00000030: 6a07 323f 5507 ae3e 6792 1b3f 840e 503f

conv2.weight f4 [32, 16, 3, 3]
0.08467039 -0.03428036 -0.066251025 -0.064201675 0.0394186 -0.035813555 0.047972627 -0.05063221
-0.008288273 -0.096290916 0.018977774 -0.029424986 0.030305974 -0.08348775 -0.011720108 0.052682478
-0.011913746 -0.07301134 -0.06996899 -0.09591457 -0.0072607496 0.03621259 0.011718113 0.013396179
-0.074479155 -0.011630867 -0.049344286 -0.07156491 0.04031113 0.090653144 0.00095222984 0.07496313
0.051907197 -0.03239338 -0.018176688 -0.0690464 -0.08441399 -0.0854039 -0.021275872 0.010555722
0.050628953 0.0012142842 0.028324192 0.067939624 0.07500249 0.035041213 0.043252192 0.037009932
-0.007131275 -0.040527854 -0.05486611 -0.0678507 0.07743409 0.03508119 -0.031318966 -0.040310245
0.042873815 -0.021464165 -0.08785606 0.07439754 0.00085625367 -0.03627729 0.019811483 -0.0013458966
-0.04267009 0.029466232 0.038966816 -0.0071843974 -0.025278127 0.01022258 -0.04498639 0.07320104
0.037976354 -0.03832565 -0.037304815 0.07275274 0.07218248 0.016878022 -0.08329875 -0.023985837
0.0040602842 0.03609316 0.052290827 0.004227869 0.055033963 0.05835087 0.03308239 0.037099592
-0.07133301 0.007202502 -0.041915826 0.051265076 -0.09011663 -0.020257052 -0.05562857 0.023514844
0.044208817 0.040383395 0.08141388 -0.053355973 0.012226576 -0.025771808 0.036841605 -0.003732858
-0.038108993 -0.04040675 0.014769517 -0.041764308 -0.08002758 0.044239882 -0.07539762 -0.09233901
-0.08214839 -0.058418695 -0.08910483 -0.011833961 -0.06028041 -0.016651463 -0.06568655 0.003535809
-0.049010817 0.036918733 0.08376174 -0.03996976 -0.0132343825 0.08033267 0.011571368 -0.06336753
-0.045267425 -0.07982003 0.04237022 -0.043352295 0.022334585 0.058472496 -0.06761364 -0.08408505
0.054592762 0.049934164 0.066789426 0.032191258 -0.04396235 0.049893755 0.03488005 -0.007937071
0.053564806 0.021229206 -0.068411775 0.03993249 -0.051871568 -0.046526134 -0.064535975 0.0010678541
0.011305163 -0.030497022 -0.073146544 0.016259506 0.046344925 0.014283748 -0.02030151 0.04830967
-0.034604233 0.06296952 0.07063589 -0.061406843 0.053075917 -0.07238974 -0.0036078081 0.022342006
-0.054713786 0.045173936 -0.01650236 0.018311312 -0.03811085 0.057866752 -0.042129952 -0.028970797
-0.07615562 -0.071928784 0.050227825 0.027313149 8.051037e-05 0.028921556 0.01468319 -0.03637871
-0.010483388 -0.0679504 -0.05151181 0.08802905 -0.059610642 0.048801545 0.05763275 -0.0011361905
0.05747103 -0.06239582 -0.058953352 0.037436146 0.077822015 0.042829078 -0.09564934 -0.09265548
-0.05948603 -0.05997488 0.04603974 -0.06774989 -0.0698045 -0.08956666 0.043449987 0.055479556
0.07957096 0.07961777 0.01614144 -0.0014927875 -0.019916316 -0.037801336 0.06094289 0.028287
-0.054002833 -0.07515009 0.009687843 0.041329075 -0.06755995 0.036562692 0.021036653 0.04451396
-0.022969546 -0.06728723 0.06869679 0.03403015 -0.01812996 -0.07511993 0.011232184 -0.013913991
-0.066024125 0.03545824 0.01682404 0.0110329855 -0.10220602 0.042267703 -0.059862085 0.0059827473
0.0510672 0.04135527 -0.06557165 0.09366648 -0.008055932 0.0018762819 -0.06849509 0.073683865
-0.079673186 0.038125057 -0.012236116 -0.0785602 -0.011615438 -0.08523313 0.05174635 0.0020141324
00000000: ab67 ad3d 9069 0cbd 9eae 87bd 2b7c 83bd
00000010: 6675 213d 3cb1 12bd f27e 443d b863 4fbd
00000020: 89cb 07bc 2c34 c5bd 4777 9b3c ab0c f1bc
00000030: 3c44 f83c a0fb aabd b205 40bc 95c9 573d
00000040: df31 43bc f886 95bd e74b 8fbd dc6e c4bd
00000050: 95eb edbb a753 143d 54fd 3f3c a67b 5b3c
00000060: 8788 98bd 648f 3ebc 3c1d 4abd a090 92bd
00000070: 491d 253d 5ba8 b93d 109f 793a 4586 993d
00000080: a49c 543d ecae 04bd 47e7 94bc 3368 8dbd
00000090: 3ee1 acbd 3de8 aebd bd4a aebc e8f1 2c3c
000000a0: 4e60 4f3d 9e28 9f3a 2308 e83c ee23 8b3d
000000b0: e89a 993d 6087 0f3d 3629 313d ba97 173d
000000c0: 78ad e9bb 8900 26bd 49bb 60bd 4ff5 8abd
000000d0: c495 9e3d 4bb1 0f3d 5148 00bd 5b1c 25bd
000000e0: 749c 2f3d 9ed5 afbc e1ed b3bd bd5d 983d
000000f0: 3676 603a 7f97 14bd b14b a23c cc68 b0ba
00000100: d5c6 2ebd 2b63 f13c ab9b 1f3d 186b ebbb
00000110: 1314 cfbc 9c7c 273c a643 38bd 6dea 953d
00000120: 188d 1b3d 5bfb 1cbd efcc 18bd 63ff 943d
00000130: 68d4 933d c743 8a3c 8998 aabd f27d c4bc
00000140: 220c 853b 6cd6 133d e82e 563d f089 8a3b
00000150: 4b6b 613d 5201 6f3d 6681 073d bef5 173d
00000160: 0b17 92bd f702 ec3b eeaf 2bbd 54fb 513d
00000170: 118f b8bd 1ef2 a5bc c9da 63bd 34a2 c03c
00000180: 4e14 353d 0f69 253d 52bc a63d cb8b 5abd
00000190: fa51 483c 661f d3bc 39e7 163d f7a2 74bb
000001a0: 2d18 1cbd 8c81 25bd d8fb 713c 0d11 2bbd
000001b0: 80e5 a3bd e134 353d 116a 9abd 3c1c bdbd
000001c0: 6a3d a8bd 7148 6fbd 987c b6bd 3be3 41bc
000001d0: 97e8 76bd a668 88bc ac86 86bd 08b9 673b
000001e0: 91bf 48bd 1938 173d 468b ab3d 55b7 23bd
000001f0: 06d5 58bc 7485 a43d d695 3d3c d6c6 81bd
00000200: 566a 39bd af78 a3bd 658c 2d3d 2d92 31bd
00000210: 05f7 b63c db80 6f3d 0579 8abd c834 acbd
00000220: a99c 5f3d c487 4c3d e5c8 883d fbda 033d
00000230: dd11 34bd 655d 4c3d 62de 0e3d 7d0a 02bc
00000240: c566 5b3d dfe8 ad3c 791b 8cbd 4090 233d
00000250: 4877 54bd 3092 3ebd 702b 84bd 3df7 8b3a
00000260: 4a39 393c e4d4 f9bc dbcd 95bd a832 853c
00000270: 2dd4 3d3d 6206 6a3c 5a4f a6bc 5ce0 453d
00000280: 2bbd 0dbd 2af6 803d 8da9 903d be85 7bbd
00000290: 2266 593d 1241 94bd fa70 6cbb 9506 b73c
000002a0: 901b 60bd 4e08 393d f52f 87bc 9b01 963c
000002b0: 1f1a 1cbd b005 6d3d 7590 2cbd 2a54 edbc
000002c0: 7af7 9bbd 664f 93bd b1bb 4d3d d3bf df3c
000002d0: add7 a838 e6ec ec3c c391 703c d801 15bd
000002e0: 84c2 2bbc 9429 8bbd 0cfe 52bd 9348 b43d
000002f0: 4a2a 74bd 21e4 473d 5210 6c3d 3aec 94ba
00000300: be66 6b3d c292 7fbd 1279 71bd a556 193d
00000310: 2661 9f3d 8b6d 2f3d cde3 c3bd 28c2 bdbd
00000320: a0a7 73bd 38a8 75bd 2b94 3c3d 74c0 8abd
00000330: a9f5 8ebd ba6e b7bd 9df8 313d 883e 633d
00000340: 19f6 a23d a40e a33d 0e3b 843c a3a9 c3ba
00000350: 8b27 a3bc 93d5 1abd 409f 793d 23ba e73c
00000360: 1332 5dbd 4ae8 99bd c2b9 1e3c ad48 293d
00000370: df5c 8abd c3c2 153d 0f55 ac3c 4554 363d
00000380: a12a bcbc e3cd 89bd e7b0 8c3d 3363 0b3d
00000390: 4885 94bc 7ad8 99bd 3207 383c 82f7 63bc
000003a0: a837 87bd a93c 113d 92d2 893c b2c3 343c
000003b0: 6451 d1bd e620 2d3d f231 75bd ec0a c43b
000003c0: d72b 513d 2564 293d 6e4a 86bd 36d4 bf3d
000003d0: 07fd 03bc 93ed f53a 2747 8cbd 91e7 963d
000003e0: b22b a3bd 0529 1c3d fe79 48bc 2ce4 a0bd
000003f0: ae4e 3ebc b58e aebd fbf3 533d 89ff 033b

conv2.bias f4 [32]
-0.021098686 -0.060796004 0.072832435 -0.033497836 -0.00064134283 -0.04826136 -0.015895085 -0.006857959
0.008382698 0.043926634 -0.04608896 0.06073249 0.033047915 0.025825618 -0.018188564 0.08189144
0.01250597 0.06993961 0.013887306 -0.06504531 -0.07768389 0.04189179 -0.06432164 -0.058699016
0.023680324 0.063131645 0.012518207 -0.03566241 0.002598222 0.0071110404 -0.019599354 -0.07837615
00000000: 27d7 acbc 3b05 79bd 2c29 953d 0735 09bd
00000010: ca1f 28ba b4ad 45bd 6936 82bc bbb8 e0bb
00000020: 9557 093c 6aec 333d c7c7 3cbd a2c2 783d
00000030: 405d 073d 3f90 d33c 2f00 95bc b3b6 a73d
00000040: d7e5 4c3c 803c 8f3d 9587 633c 7a36 85bd
00000050: bb18 9fbd ba96 2b3d 10bb 83bd 616e 70bd
00000060: 3dfd c13c 2a4b 813d 2a19 4d3c bf12 12bd
00000070: ef46 2a3b bb03 e93b d38e a0bc ad83 a0bd

bn2.weight f4 [32]
0.9898129 0.994868 1.011571 0.97707164 0.98221606 1.0128926 0.97679085 0.99771225
1.0364438 1.0088427 0.99340045 1.0215385 0.98853064 0.9704967 0.9760421 0.98874414
1.0166359 0.967768 1.0074886 0.9868181 0.99073523 0.96575505 1.0090082 0.977886
0.98117954 1.0301535 0.97248375 0.99968994 1.0072186 0.9916785 1.0206465 1.0131813
00000000: 6164 7d3f abaf 7e3f 297b 813f 5e21 7a3f
00000010: 8372 7b3f 77a6 813f f70e 7a3f 126a 7f3f
00000020: 31aa 843f c221 813f 7e4f 7e3f c6c1 823f
00000030: 5810 7d3f 7972 783f e5dd 793f 561e 7d3f
00000040: 2021 823f a5bf 773f 63f5 803f 1ca0 7c3f
00000050: d3a0 7d3f b93b 773f 2e27 813f bd56 7a3f
00000060: 952e 7b3f 12dc 833f b2f4 783f aeeb 7f3f
00000070: 8aec 803f a4de 7d3f 8ba4 823f edaf 813f

bn2.bias f4 [32]
0.0033309849 0.013802315 0.03429469 -0.022350853 -0.0048883376 0.028028859 -0.007744824 -0.016372232
0.007790175 0.027529458 0.0010172734 0.024847569 0.0070925727 -0.0276218 -0.014746164 0.009352206
0.03480727 -0.023939108 0.025382638 -0.021189464 0.0034169082 -0.003457026 -0.0026219233 -0.018367589
0.00024623284 0.042946227 -0.025769409 0.011054505 0.030040922 0.0057273037 0.013615452 0.022174014
00000000: a74c 5a3b 1b23 623c 9778 0c3d 2319 b7bc
00000010: 592e a0bb c79c e53c 4bc8 fdbb 0f1f 86bc
00000020: b944 ff3b 7585 e13c 0856 853a 218d cb3c
00000030: d068 e83b 1d47 e2bc e599 71bc ff39 193c
00000040: 1192 0e3d f31b c4bc 40ef cf3c 8795 adbc
00000050: 35ee 5f3b 468f 62bb 93d4 2bbb a077 96bc
00000060: d018 8139 62e8 2f3d 5e1a d3bc f41d 353c
00000070: 6118 f63c 1bac bb3b 5813 5f3c 47a6 b53c

bn2.running_mean f4 [32]
-0.3150255 -0.30046457 -0.40976173 0.63377845 -0.28805727 -0.6297385 -0.36170557 -0.23863778
-0.16806245 -0.15857314 -0.4578158 -0.35295528 -0.44666722 -0.17223658 0.074418984 -0.32464176
-0.11909287 0.11533119 -0.2920118 0.4084308 -0.46575335 -0.12992656 -0.26418397 0.014020658
-0.043427017 -0.53436726 0.19284244 -0.39708576 -0.3047755 0.016175788 -0.4418219 -0.2904956
00000000: 064b a1be 7ed6 99be 4acc d1be 4e3f 223f
00000010: 3e7c 93be 8b36 21bf 7931 b9be 765d 74be
00000020: 9018 2cbe ff60 22be d566 eabe 8eb6 b4be
00000030: 91b1 e4be c95e 30be fb68 983d 7237 a6be
00000040: f6e6 f3bd c232 ec3d 9282 95be d81d d13e
00000050: 3977 eebe 780b 05be 1f43 87be e7b6 653c
00000060: 87e0 31bd 4bcc 08bf 7d78 453e d34e cbbe
00000070: 890b 9cbe 1683 843c 7b36 e2be d7bb 94be

bn2.running_var f4 [32]
0.21640795 0.2800856 0.48839375 0.31087646 0.28724587 0.49179435 0.24310605 0.20203328
0.5494723 0.38138488 0.36159998 0.26260933 0.2137824 0.22343427 0.21084249 0.16959606
0.36972514 0.17474827 0.34369728 0.28705844 0.38144103 0.24262582 0.34108287 0.18471636
0.2734785 0.3426195 0.19135305 0.29473522 0.2437495 0.2889803 0.6463631 0.30699816
00000000: 0c9a 5d3e 6167 8f3e bf0e fa3e 332b 9f3e
00000010: e411 933e 78cc fb3e cbf0 783e d0e1 4e3e
00000020: 37aa 0c3f e144 c33e a223 b93e bb74 863e
00000030: c6e9 5a3e f4cb 643e 18e7 573e 97aa 2d3e
00000040: 9d4c bd3e 36f1 323e 17f9 af3e 53f9 923e
00000050: 3d4c c33e e772 783e 6aa2 ae3e 4926 3d3e
00000060: 6005 8c3e d36b af3e 0ef2 433e 89e7 963e
00000070: 7899 793e 3af5 933e 0d78 253f dd2e 9d3e

conv3.weight f4 [48, 32, 3, 3]
0.019760933 -0.019841796 -0.05269663 -0.004002548 0.03711051 -0.048333254 0.037126496 -0.02941617
0.036029898 -0.021553643 -0.036780033 0.047697708 -0.030537698 0.028271176 -0.017940808 0.025222357
0.05601847 0.002523546 -0.0052367887 0.024602443 0.057137012 0.020676037 -0.047611564 0.06187574
-0.072280474 -0.01698478 0.0009704956 -0.04631814 0.04203494 -0.0019763764 -0.021209745 0.006792061
-0.013929909 0.034581143 0.0017427251 -0.007409088 -0.062465332 -0.04717322 0.032115277 -0.033387303
-0.059981193 0.017902646 -0.048093893 0.024630515 -0.034608684 0.023397444 -0.040609475 -0.018967807
-0.0041589793 0.044595696 -0.035936005 0.020645093 -0.054669134 0.03674726 -0.027422141 -0.06208134
-0.05630624 0.055678375 -0.049080558 0.029299166 -0.024873551 0.026123011 0.022113979 -0.060118645
-0.0045761866 0.039910756 -0.0049173855 -0.053959604 0.015090448 0.03531665 -0.016357869 0.015296993
0.0008265105 0.04147883 0.017250383 -0.013235007 -0.05701948 -0.007945799 -0.032919165 0.031010676
0.032700595 -0.033398867 0.041643593 -0.056874238 -0.03797511 -0.01189577 -0.028391784 0.036745317
-0.014428192 0.037158947 -0.048902676 -0.025701214 -0.023709618 0.029332995 -0.031644706 0.03816545
-0.0062259478 0.021915242 0.024999082 0.01689226 0.0030060294 0.054320604 -0.06597768 0.01558405
0.0471625 -0.035835993 -0.032152038 -0.008170773 -0.033805825 -0.005688663 0.054982744 0.0048702336
-0.036687225 -0.049061574 -0.00028845487 0.006952171 -0.055124294 0.049023617 -0.044816755 -0.041978534
0.008582758 -0.030275952 -0.009373277 0.0654966 -0.0471157 0.044642765 -0.030136872 -0.0029738548
0.0010886478 0.029513918 0.031801973 -0.035886277 -0.034366705 0.01728961 0.0006946402 -0.015804697
0.05482133 -0.022006085 -0.05951351 0.001088515 -0.007480743 0.034718033 0.04095118 0.0055065295
0.02190607 -0.059585877 -0.026731003 -0.001963215 -0.03604552 -0.039270602 -0.020499041 -0.0020760028
-0.005189509 -0.064166956 0.004880362 -0.037337422 -0.035731174 0.02557339 -0.044044487 -0.055791672
-0.047477268 -0.027294522 0.0023304014 -0.016591324 -0.014580017 -0.033573404 -0.01479299 -0.0512574
-0.05261721 0.038212 0.055744655 -0.030948777 -0.018416345 -0.037703894 -0.061539263 -0.005476674
0.0066353288 -0.05240805 0.026744494 -0.051269095 -0.008566774 0.042012673 -0.02796757 -0.00066520507
-0.051513627 0.0496303 -0.051893502 -0.01321299 -0.03408951 -0.017471027 -0.0042245705 0.013495771
-0.006207237 0.03536018 -0.03976236 -0.017097194 0.013010884 -0.029799657 0.026271623 -0.05061574
-0.05101669 0.038552966 -0.0012959577 -0.054485966 -0.01820461 0.044549897 0.044921692 0.014710317
-0.011992115 -0.01800504 -0.0054081855 -0.054591104 -0.008930711 -0.031390127 0.03578074 0.037161164
0.007660112 -0.029542582 0.0032732482 -0.025284214 -0.027580641 -0.058409818 -0.0058088866 -0.00892112
0.010785727 0.0066268644 -0.050956957 0.017066142 0.043505386 -0.023933996 0.029788848 0.0087405685
-0.004769861 0.06003354 0.04950734 0.03843058 -0.026922446 -0.0456856 -0.019364621 -0.0470246
-0.01723967 -0.05105602 -0.067365155 0.02050338 -0.05903104 -0.053870015 -0.023794234 -0.016847724
-0.022305446 -0.016796157 0.04755372 -0.049016774 0.0039001275 -0.011405837 -0.0006881347 -0.046479113
00000000: aee1 a13c 438b a2bc 6cd8 57bd ce27 83bb
00000010: 3101 183d 17f9 45bd f411 183d 2efa f0bc
00000020: 1694 133d 4491 b0bc a9a6 16bd ac5e 433d
00000030: 322a fabc f498 e73c 9af8 92bc 1e9f ce3c
00000040: a073 653d 1462 253b 5e99 abbb 108b c93c
00000050: 8008 6a3d cb60 a93c 5804 43bd 6a71 7d3d
00000060: c907 94bd aa23 8bbc db68 7e3a 17b8 3dbd
00000070: d42c 2c3d 1886 01bb 0fc0 adbc f08f de3b
00000080: 463a 64bc f5a4 0d3d 276c e43a efc7 f2bb
00000090: a6db 7fbd b538 41bd 4f8b 033d 20c1 08bd
000000a0: d7ae 75bd 92a8 923c 1afe 44bd efc5 c93c
000000b0: d6c1 0dbd ffab bf3c 1f56 26bd 6062 9bbc
000000c0: 0c48 88bb faa9 363d a231 13bd e61f a93c
000000d0: beec 5fbd 4b84 163d 66a4 e0bc 0149 7ebd
000000e0: 5fa1 66bd 020f 643d b208 49bd ce04 f03c
000000f0: 9ec3 cbbc edff d53c 6028 b53c f83e 76bd
00000100: d6f3 95bb 7679 233d 0522 a1bb bf04 5dbd
00000110: ed3d 773c 31a8 103d f000 86bc 3da0 7a3c
00000120: 2eaa 583a b5e5 293d ad50 8d3c a5d7 58bc
00000130: 428d 69bd 192f 02bc 3fd6 06bd 1a0a fe3c
00000140: 0ff1 053d 40cd 08bd 7992 2a3d f6f4 68bd
00000150: ca8b 1bbd 7ae6 42bc e395 e8bc 4282 163d
00000160: 3964 6cbc fb33 183d 2c4e 48bd 5a8b d2bc
00000170: ac3a c2bc c04b f03c e19d 01bd 6053 1c3d
00000180: 0903 ccbb 9887 b33c e0ca cc3c a361 8a3c
00000190: ce00 453b 487f 5e3d 4e1f 87bd 3e54 7f3c
000001a0: 772d 413d c3c8 12bd dbb1 03bd b5de 05bc
000001b0: fa77 0abd f767 babb 9635 613d 7b96 9f3b
000001c0: 5845 16bd caf4 48bd c23b 97b9 0acf e33b
000001d0: 03ca 61bd fdcc 483d c691 37bd aff1 2bbd
000001e0: b29e 0c3c 4605 f8bc 6092 19bc 1523 863d
000001f0: 64fc 40bd 55db 363d 9ae1 f6bc 01e5 42bb
00000200: f5b0 8e3a 2cc7 f13c c942 023d 7dfd 12bd
00000210: 1ac4 0cbd f1a2 8d3c 8418 363a da78 81bc
00000220: 558c 603d 1b46 b4bc 70c4 73bd 81ac 8e3a
00000230: 0521 f5bb 7f34 0e3d 6dbc 273d 1e70 b43b
00000240: 5c74 b33c 5210 74bd fafa dabc 48a9 00bb
00000250: 78a4 13bd 36da 20bd 9bed a7bc 8c0d 08bb
00000260: c20c aabb f769 83bd 72eb 9f3b 20ef 18bd
00000270: da5a 12bd 497f d13c fe67 34bd cf85 64bd
00000280: 8677 42bd c398 dfbc a6b9 183b 87ea 87bc
00000290: 06e1 6ebc 4484 09bd 4c5e 72bc 48f3 51bd
000002a0: 2585 57bd 3084 1c3d 8254 643d 4a88 fdbc
000002b0: e0dd 96bc 666f 1abd 9810 7cbd ac75 b3bb
000002c0: 2c6d d93b d3a9 56bd 4517 db3c 8bff 51bd
000002d0: a85b 0cbc 7b15 2c3d 3f1c e5bc 2861 2eba
000002e0: f4ff 52bd 2449 4b3d 488e 54bd 4c7b 58bc
000002f0: 71a1 0bbd 661f 8fbc 446e 8abb 5e1d 5d3c
00000300: 1466 cbbb d6d5 103d dbdd 22bd 6a0f 8cbc
00000310: 9a2b 553c 691e f4bc 9637 d73c 7352 4fbd
00000320: e0f6 50bd b7e9 1d3d 20dd a9ba ad2c 5fbd
00000330: d621 95bc f479 363d cfff 373d 8b03 713c
00000340: 937a 44bc 4e7f 93bc 2637 b1bb ec9a 5fbd
00000350: 1e52 12bc ef92 00bd d38e 123d 4e36 183d
00000360: ad01 fb3b 4903 f2bc fe83 563b d720 cfbc
00000370: ccf0 e1bc 223f 6fbd 7958 bebb e429 12bc
00000380: 9eb6 303c 2b26 d93b 3eb8 50bd 4bce 8b3c
00000390: b432 323d 3a11 c4bc be07 f43c 9a34 0f3c
000003a0: 7f4c 9cbb bbe5 753d 35c8 4a3d 6269 1d3d
000003b0: 768c dcbc d320 3bbd 8ea2 9ebc de9c 40bd
000003c0: 353a 8dbc 1e20 51bd bef6 89bd b4f6 a73c
000003d0: 88ca 71bd cea6 5cbd 20ec c2bc 3d04 8abc
000003e0: e9b9 b6bc 1898 89bc b1c7 423d d0c5 48bd
000003f0: 4899 7f3b 8cdf 3abc f063 34ba e260 3ebd

conv3.bias f4 [48]
0.017762888 -0.009723397 0.011734745 0.0292509 0.0042112228 0.045365177 -0.05838338 0.023663733
0.02291779 -0.05295715 -0.04969762 0.030583728 0.007966631 0.012994485 -0.045707732 0.051130477
-0.052189004 0.0011345253 -0.05431334 -0.017276848 -0.0077466103 -0.00788941 -0.032017328 0.043864824
0.026140504 -0.045807526 0.042780373 0.019308034 -0.02690016 0.02414134 -0.02180107 0.036586016
0.031645045 0.026525822 0.012842201 -0.032487042 0.027646292 0.0008897504 0.016962657 -0.04855401
-0.012415311 0.024241691 0.008847667 0.055574313 0.057847403 -0.050992683 -0.018956235 -0.045185417
00000000: 7a83 913c e24e 1fbc 1743 403c 959f ef3c
00000010: 4cfe 893b d6d0 393d 6923 6fbd 72da c13c
00000020: 17be bb3c 99e9 58bd bb8f 4bbd ba8a fa3c
00000030: 7986 023c d2e6 543c 0838 3bbd 316e 513d
00000040: 23c4 55bd 5ab4 943a aa77 5ebd 2d88 8dbc
00000050: 47d7 fdbb 9542 01bc 9a24 03bd 9aab 333d
00000060: 9c24 d63c aca0 3bbd 793a 2f3d e22b 9e3c
00000070: b95d dcbc 0fc4 c53c 2898 b2bc 38db 153d
00000080: 3c9e 013d ae4c d93c 1868 523c 2211 05bd
00000090: 7a7a e23c 233e 693a 45f5 8a3c 92e0 46bd
000000a0: 9769 4bbc 8396 c63c cef5 103c e4a1 633d
000000b0: 66f1 6c3d b4dd 50bd 1b4a 9bbc 5814 39bd

bn3.weight f4 [48]
0.9959901 0.9945935 0.9794794 1.0094544 0.987863 0.9653353 1.0019832 0.98902243
0.9983478 1.0024515 0.9793774 1.001171 0.9935652 0.9857824 0.98160464 0.9966793
1.0019634 0.97880256 0.97983646 0.9935293 0.9983226 1.0240482 0.98298913 1.006067
1.0078901 0.98718977 0.99668926 1.008862 0.99233884 0.999275 0.9961425 0.98045284
0.98820955 0.9933487 0.9856769 1.0237414 0.99906087 0.9950653 1.0129607 1.0170841
0.991141 0.9791801 0.9979077 0.9915142 1.0117248 1.0028813 1.01417 1.0058697
00000000: 35f9 7e3f ae9d 7e3f 29bf 7a3f cd35 813f
00000010: 97e4 7c3f 3720 773f fc40 803f 9330 7d3f
00000020: b993 7f3f 5550 803f 7ab8 7a3f 5f26 803f
00000030: 4a5a 7e3f 3c5c 7c3f 714a 7b3f 6026 7f3f
00000040: 5640 803f ce92 7a3f 90d6 7a3f f057 7e3f
00000050: 1292 7f3f 0314 833f 2da5 7b3f cec6 803f
00000060: 8b02 813f 78b8 7c3f 0727 7f3f 6422 813f
00000070: eb09 7e3f 7dd0 7f3f 3203 7f3f f5fe 7a3f
00000080: 4dfb 7c3f 1a4c 7e3f 5255 7c3f f509 833f
00000090: 74c2 7f3f 99bc 7e3f b2a8 813f d02f 823f
000000a0: 6bbb 7d3f 8cab 7a3f e176 7f3f e0d3 7d3f
000000b0: 3380 813f 6a5e 803f 53d0 813f 57c0 803f

bn3.bias f4 [48]
-0.0036908786 -0.0073322332 -0.017848592 0.0067054527 -0.0056949407 -0.027284205 0.006660198 -0.0067341323
0.0011148853 -0.02216813 -0.009334747 -0.0012582609 -0.001146405 -0.031257544 -0.016141191 -0.0051895455
-0.008238525 -0.010552004 -0.009987826 -0.0008675985 0.0037750127 -0.0020953328 -0.006801195 0.00053590816
-0.011172709 -0.013248762 0.0011615406 -0.00760093 -0.0062526236 -0.0320973 -0.0103211235 -0.009550241
-0.00492568 -0.014230729 -0.0022733265 -0.034213725 -0.02338835 0.0063080974 -0.036908682 0.002080625
-0.01024048 -0.0068240385 -0.015374483 0.0064591686 -0.007019234 -0.00092574325 0.008316947 -0.003004729
00000000: abe2 71bb 3b43 f0bb 3637 92bc 6ab9 db3b
00000010: a09c babb 2083 dfbc ca3d da3b ffa9 dcbb
00000020: 5821 923a f099 b5bc c4f0 18bc 3bec a4ba
00000030: f842 96ba e907 00bd 883a 84bc 100d aabb
00000040: e1fa 06bc 50e2 2cbc fba3 23bc 8d6f 63ba
00000050: 3466 773b da51 09bb 8fdc debb 307c 0c3a
00000060: bd0d 37bc 5611 59bc d63e 983a 3911 f9bb
00000070: cfe2 ccbb 7578 03bd ee19 29bc 9d78 1cbc
00000080: 9967 a1bb 0128 69bc 17fc 14bb b123 0cbd
00000090: ed98 bfbc 28b4 ce3b 8f2d 17bd 185b 083b
000000a0: b0c7 27bc 2f9c dfbb 41e5 7bbc 6fa7 d33b
000000b0: 9a01 e6bb 94ad 72ba ce43 083c fdea 44bb

bn3.running_mean f4 [48]
-0.7033308 -0.13121259 -0.12829101 0.06542276 0.2606891 0.3290344 -0.409282 -0.61532265
-0.07523932 -0.2775448 -0.47334844 -0.28479755 0.060597822 -0.03333656 0.08132154 -0.44991678
-0.08351568 0.0101078795 -0.17036472 0.07949369 -0.50141263 -0.46597293 -0.3577722 -0.45904374
-0.55672646 -0.15635549 -0.49356383 -0.04631459 -0.33182025 0.08971692 -0.82281023 -0.712665
-0.28788736 -0.015079511 -0.18800774 -0.22102971 0.032572087 -0.10501036 -0.77029264 -0.25545964
-0.5589539 -0.12770464 -0.18349859 -0.08312594 -0.29655382 0.12196953 -0.6216098 -0.6086646
00000000: 7d0d 34bf 985c 06be b85e 03be 5efc 853d
00000010: 0b79 853e 3277 a83e 698d d1be c985 1dbf
00000020: 1317 9abd 5a1a 8ebe ba5a f2be fcd0 91be
00000030: 6c35 783d eb8b 08bd e88b a63d 7e5b e6be
00000040: 450a abbd 859b 253c 1774 2ebe 96cd a23d
00000050: 945c 00bf 0194 eebe eb2d b7be c807 ebbe
00000060: a085 0ebf a71b 20be 66b4 fcbe 5eb4 3dbd
00000070: 58e4 a9be 81bd b73d b1a3 52bf 3771 36bf
00000080: f965 93be 0e10 77bc 1a85 40be 9d55 62be
00000090: 4f6a 053d ac0f d7bd e631 45bf 9bcb 82be
000000a0: 9a17 0fbf 01c5 02be 0ee7 3bbe ef3d aabd
000000b0: e7d5 97be 29cb f93d d221 1fbf 71d1 1bbf

bn3.running_var f4 [48]
0.2629621 0.16142969 0.18124871 0.15631682 0.21562243 0.17121166 0.2521345 0.260101
0.114786215 0.23594677 0.087578684 0.20690037 0.18096635 0.13638234 0.105347045 0.15852149
0.16196802 0.14900036 0.14739625 0.24151829 0.13914008 0.26837856 0.37414172 0.15273009
0.1994611 0.12298132 0.2634519 0.20402595 0.17987104 0.087912045 0.3102248 0.16344732
0.16691281 0.20197037 0.33318868 0.10533341 0.20263922 0.12634584 0.33492038 0.1377927
0.13159786 0.35294482 0.2398172 0.2978959 0.09277815 0.19530904 0.23326336 0.19370136
00000000: f8a2 863e d34d 253e 4399 393e 8411 203e
00000010: 20cc 5c3e 1c52 2f3e c617 813e f52b 853e
00000020: 0915 eb3d 089c 713e 745c b33d b1dd 533e
00000030: 3e4f 393e d0a7 0b3e 31c0 d73d 7553 223e
00000040: f2da 253e 8d93 183e 0bef 163e 9250 773e
00000050: bd7a 0e3e ea68 893e 818f bf3e 4765 1c3e
00000060: 883f 4c3e a1dd fb3d 2be3 863e 2eec 503e
00000070: 1d30 383e 3b0b b43d c9d5 9e3e bc5e 273e
00000080: 31eb 2a3e 52d1 4e3e b597 aa3e 0bb9 d73d
00000090: a880 4f3e ce60 013e af7a ab3e 8819 0d3e
000000a0: 97c1 063e 2fb5 b43e a492 753e d085 983e
000000b0: 7902 be3d 18ff 473e 97dc 6e3e a659 463e

conv4.weight f4 [64, 48, 3, 3]
0.027786463 -0.032594293 0.024602113 -0.031787988 -0.037569642 -0.028615134 0.02477435 -0.04376467
0.02878703 0.010855091 -0.01985187 0.012981609 0.019105894 0.035932936 0.0018983088 0.027171288
-0.014222237 0.020953221 0.031585824 -0.0094522815 -0.03661319 -0.010265116 -0.009735249 -0.0076956283
0.013587212 0.030909969 0.029467622 0.0048923027 0.008980525 0.035987355 0.05020476 0.04048235
0.040927924 0.06311956 0.0064787166 0.029097984 -0.0048028664 -0.017188936 0.010020521 0.004637508
-0.02822403 0.030375794 -0.025405237 0.012456747 0.03269961 -0.027671747 0.039784282 0.008507079
-0.0061778985 0.031907987 -0.008849337 -0.048559964 0.013840909 -0.024217295 -0.03241113 0.0012392732
-0.051755372 0.027296983 -0.057225373 -0.059093468 0.005037849 -0.030458985 0.024655983 -0.01889323
-0.03521935 0.0039205453 0.000973116 -0.017520057 0.03744072 -0.010034693 0.03724196 0.0017771329
0.0005790452 0.02792531 0.04538407 0.012878901 0.018577201 -0.016011324 -0.017184693 0.018551784
-0.018767415 -0.03327462 -0.028013654 0.012029317 0.026304865 0.04224914 0.054621898 0.013643484
-0.034539945 0.013159631 0.015326037 0.036510713 0.048520442 -0.01943004 0.030392263 0.03138598
0.030196927 0.008547575 -0.048824508 0.0024586963 -0.029427221 -0.03818029 -0.02349408 0.011793801
0.015164581 0.04023501 0.03878606 0.011510119 -0.017603679 -0.017031968 0.003180202 0.0047479253
-0.015715765 -0.029656073 0.016015219 0.030420125 -0.008714447 -0.0009975651 0.00048218932 -0.033559658
0.012442703 -0.002107254 -0.018915815 0.034297183 0.02288899 -9.3934555e-05 -0.0037714485 -0.028338794
-0.019697629 -0.01830725 -0.027649133 -0.0057722614 -0.036967866 -0.0059215818 0.03468336 -0.0044697695
0.01179118 0.024269693 -0.008068208 0.008439771 -0.022754034 -0.011049774 0.024458168 0.01339197
0.027563907 0.021771569 0.03875113 0.044760767 -0.043099105 0.017931003 0.014255675 0.019310469
0.022763431 0.008385345 0.03903503 -0.012397553 -0.03502757 0.029440803 0.044416085 -0.015973615
0.029591039 -0.011241447 -0.016796593 -0.013567471 -0.0027882396 0.018334605 -0.030542178 0.049408752
-0.019628907 0.024409443 0.008408271 0.001045232 -0.005825771 0.020916466 0.021408362 0.042513374
0.03484023 -0.024773143 0.04750136 -0.011812893 -0.0037835673 -0.032833293 0.0013269685 -0.040432606
0.012525772 -0.04351121 -0.010827184 -0.044635516 -0.0004572163 -0.016604828 0.012109525 0.027050667
0.04499406 -0.015603303 -0.018245745 -0.019367013 -0.04077027 -0.028695224 -0.043428853 0.039390948
0.037828196 -0.0025286523 0.0027529332 -0.0016344199 -0.01527311 0.027097529 -0.033314105 0.015517434
-0.007862498 0.049530618 -0.004198364 0.004974151 0.0653344 -0.005961847 0.045032423 0.0062713125
-0.041365467 -0.007118944 -0.05116716 -0.04665181 0.018324437 -0.047330815 -0.003295839 0.025147565
-0.055765178 0.000742437 0.012573115 -0.022684636 0.007679441 0.030645404 -0.030552851 -0.016122457
-0.04084108 0.002971474 -0.010790819 -0.028086994 -0.0059911204 0.031256385 -0.03194819 -0.016488902
-0.013213884 -0.034027882 -0.027524501 -0.040421627 0.04874592 0.052715074 0.04744454 -0.01997526
0.011352841 -0.041680023 0.013331971 -0.009388785 0.031783294 -0.044820074 0.0347447 -0.029382655
00000000: 70a0 e33c 9881 05bd 5f8a c93c 1f34 02bd
00000010: a0e2 19bd 496a eabc 94f3 ca3c 9542 33bd
00000020: c7d2 eb3c 8dd9 313c 64a0 a2bc d1b0 543c
00000030: f783 9c3c 6a2e 133d acd0 f83a 5296 de3c
00000040: 6304 69bc 17a6 ab3c 2360 013d bedd 1abc
00000050: b6f7 15bd 042f 28bc 9880 1fbc 9c2b fcbb
00000060: e69c 5e3c e736 fd3c 1566 f13c 9c4f a03b
00000070: 0d23 133c 7a67 133d 82a3 4d3d d2d0 253d
00000080: 0aa4 273d d444 813d 6a4b d43b e55e ee3c
00000090: 5d61 9dbb d0cf 8cbc 1c2d 243c 3df6 973b
000000a0: 1536 e7bc a8d6 f83c a51e d0bc 6217 4c3c
000000b0: 07f0 053d dcaf e2bc d8f4 223d 4761 0b3c
000000c0: f86f cabb f3b1 023d cffc 10bc d0e6 46bd
000000d0: fbc4 623c 5963 c6bc 88c1 04bd 1c6f a23a
000000e0: 71fd 53bd ec9d df3c 2765 6abd fe0b 72bd
000000f0: 8a14 a53b 1f85 f9bc 58fb c93c fac5 9abc
00000100: 2a42 10bd eb77 803b b618 7f3a 3986 8fbc
00000110: 715b 193d 8e68 24bc 078b 183d afee e83a
00000120: 11cb 173a 9fc3 e43c a6e4 393d 0702 533c
00000130: 372f 983c 2e2a 83bc eac6 8cbc e9f9 973c
00000140: 1fbe 99bc f84a 08bd e47c e5bc 9d16 453c
00000150: 4d7d d73c 6f0d 2d3d 36bb 5f3d eb88 5f3c
00000160: c279 0dbd 7e9b 573c 0f1a 7b3c 428c 153d
00000170: 5fbd 463d bf2b 9fbc 32f9 f83c 968e 003d
00000180: 8c5f f73c 210b 0c3c 35fc 47bd 1422 213b
00000190: 5b11 f1bc f062 1cbd a876 c0bc c93a 413c
000001a0: dd74 783c 77cd 243d 22de 1e3d f094 3c3c
000001b0: 9735 90bc a086 8bbc f06a 503b 7c94 9b3b
000001c0: 59be 80bc 4bf1 f2bc 5932 833c a033 f93c
000001d0: 0ac7 0ebc bbc0 82ba 5bce fc39 da75 09bd
000001e0: 7bdc 4b3c db19 0abb 57f5 9abc 347b 0c3d
000001f0: b181 bb3c bbfe c4b8 682a 77bb c226 e8bc
00000200: ec5c a1bc 16f9 95bc 6f80 e2bc 3d25 bdbb
00000210: 9e6b 17bd d409 c2bb 2410 0e3d 2577 92bb
00000220: cb2f 413c 3cd1 c63c 8430 04bc f746 0a3c
00000230: ab66 babc 1c0a 35bc 7f5c c83c fe69 5b3c
00000240: b4cd e13c 4a5a b23c 81b9 1e3d 1157 373d
00000250: b088 30bd 0ae4 923c a290 693c fd30 9e3c
00000260: 607a ba3c b062 093c 32e3 1f3d 1b1f 4bbc
00000270: 1279 0fbd d72d f13c a4ed 353d 19db 82bc
00000280: e868 f23c 0c2e 38bc 0299 89bc 194a 5ebc
00000290: e6ba 36bb 7432 963c 9733 fabc d560 4a3d
000002a0: cdcc a0bc 50f6 c73c d8c2 093c 2b00 893a
000002b0: 1ce6 bebb 0259 ab3c 9760 af3c 8122 2e3d
000002c0: a1b4 0e3d 0cf1 cabc c990 423d dd8a 41bc
000002d0: baf5 77bb 347c 06bd aded ad3a a99c 25bd
000002e0: e538 4d3c cf38 32bd 8064 31bc bbd3 36bd
000002f0: 88b6 efb9 d906 88bc 0767 463c 5c99 dd3c
00000300: b14b 383d ffa4 7fbc 1a78 95bc 92a7 9ebc
00000310: bafe 26bd 3f12 ebbc 74e2 31bd 6758 213d
00000320: bdf1 1a3d bfb7 25bb 8e6a 343b 083a d6ba
00000330: 113c 7abc a3fb dd3c 5f74 08bd d63c 7e3c
00000340: b5d1 00bc 9ee0 4a3d 6e92 89bb 34fe a23b
00000350: 0bce 853d 995b c3bb eb73 383d 957f cd3b
00000360: d66e 29bd 0846 e9bb a894 51bd f815 3fbd
00000370: 211d 963c f5dd 41bd 01ff 57bb 4402 ce3c
00000380: 076a 64bd 1ba0 423a 77ff 4d3c 21d5 b9bc
00000390: d2a3 fb3b 120c fb3c f949 fabc 3e13 84bc
000003a0: fa48 27bd 10bd 423b facb 30bc b216 e6bc
000003b0: 2951 c4bb b206 003d 1bdc 02bd bc13 87bc
000003c0: 0c7f 58bc d260 0bbd 107b e1bc 2691 25bd
000003d0: cda9 473d c3eb 573d 3555 423d 28a3 a3bc
000003e0: 4401 3a3c acb8 2abd 576e 5a3c 6bd3 19bc
000003f0: 332f 023d 4195 37bd 7550 0e3d e5b3 f0bc

conv4.bias f4 [64]
-0.043470655 0.025638707 -0.006760807 0.0073740836 -0.03456966 0.018337496 -0.0053727697 -0.04340255
0.009554485 0.019480255 -0.043021355 -0.04532654 0.041421622 0.032059018 -0.04229621 -0.03137694
-0.02159437 0.040872574 0.008534168 0.040631123 -0.0037021562 0.03042327 -0.024640338 0.046401944
-0.019518457 -0.03249156 -0.023759307 -0.045083813 -0.010707438 0.04365437 -0.013673558 0.040647864
0.027522232 0.0015314594 -0.03545927 0.0131308315 -0.04187654 -0.016173108 0.03274868 -0.026765738
-0.024573945 0.015820649 -0.028565962 -0.045527305 0.00011338813 -0.01558021 0.033370145 0.04706723
0.04006664 0.028985022 -0.046055574 0.014433948 0.023248952 0.04162326 0.008179584 0.018141769
-0.005171596 0.040713653 0.03989384 0.023483798 -0.029855087 -0.023287984 0.03552497 -0.009274199
00000000: 490e 32bd 4408 d23c c289 ddbb 4ca2 f13b
00000010: ea98 0dbd 8438 963c 0f0e b0bb dfc6 31bd
00000020: 6a8a 1c3c 0e95 9f3c 2937 30bd 52a8 39bd
00000030: b8a9 293d 5150 033d ca3e 2dbd 1b85 00bd
00000040: ade6 b0bc 006a 273d e5d2 0b3c d26c 263d
00000050: e09f 72bb 393a f93c 89da c9bc f70f 3e3d
00000060: 2ce5 9fbc df15 05bd e1a2 c2bc cea9 38bd
00000070: 406e 2fbc edce 323d 0f07 60bc 607e 263d
00000080: 4e76 e13c 40bb c83a bd3d 11bd b322 573c
00000090: bc86 2bbd 777d 84bc 7b23 063d d243 dbbc
000000a0: 4c4f c9bc 4e9a 813c 2a03 eabc d77a 3abd
000000b0: caca ed38 2344 7fbc 22af 083d 91c9 403d
000000c0: eb1c 243d ff71 ed3c c5a4 3cbd 5e7c 6c3c
000000d0: 9674 be3c 277d 2a3d a903 063c 0c9e 943c
000000e0: 7e76 a9bb 5cc3 263d b967 233d 1861 c03c
000000f0: a892 f4bc 71c6 bebc a282 113d cff2 17bc

bn4.weight f4 [64]
1.0366316 1.0197023 1.0293446 1.0352186 1.0202816 1.0374314 1.0309612 1.0333791
1.039215 1.0341976 1.0208663 1.0561489 1.0337403 1.0107672 1.0231564 1.0164118
1.01723 1.0200555 1.0190127 1.0166314 1.042784 1.0137314 1.0229863 1.0222061
1.0284939 1.0275466 1.0282885 1.0276219 1.0489564 1.0097297 1.0412818 1.0173159
1.0052104 1.0254109 1.0337193 1.0110673 1.040221 1.0209036 1.0497102 1.0089773
1.0312066 1.0121301 1.0055629 1.0199972 1.0150161 1.0269262 1.0187707 1.0552517
1.0242052 1.0343549 1.0360191 1.0257962 1.0107543 1.0117791 1.0184628 1.0242397
1.0180861 1.0410168 1.0294572 1.0268198 1.0488796 1.0153208 1.0199174 1.018788
00000000: 58b0 843f 9b85 823f 90c1 833f 0b82 843f
00000010: 9698 823f 8dca 843f 89f6 833f c445 843f
00000020: ff04 853f 9660 843f bfab 823f e32f 873f
00000030: 9a51 843f d260 813f caf6 823f c819 823f
00000040: 9834 823f 2e91 823f 026f 823f fa20 823f
00000050: f279 853f f3c1 813f 37f1 823f a6d7 823f
00000060: b0a5 833f a686 833f f59e 833f 1d89 833f
00000070: 3444 863f d33e 813f b948 853f 6837 823f
00000080: bcaa 803f aa40 833f ea50 843f a76a 813f
00000090: f625 853f f8ac 823f e75c 863f 2b26 813f
000000a0: 94fe 833f 7b8d 813f 49b6 803f 458f 823f
000000b0: 0cec 813f 5172 833f 1467 823f 7d12 873f
000000c0: 2819 833f be65 843f 469c 843f 4a4d 833f
000000d0: 6660 813f fa81 813f fd5c 823f 491a 833f
000000e0: a550 823f 0a40 853f 41c5 833f d56e 833f
000000f0: b041 863f 08f6 813f a78c 823f a567 823f

bn4.bias f4 [64]
-0.010986573 -0.008432515 0.0013150992 -0.01259915 -0.0008465579 -0.023893965 -0.024088854 -0.0024646248
0.0016908343 -0.0050544343 -0.0033811335 -0.0067370436 -0.0027016464 6.65967e-05 -0.0038209069 -0.0036019115
-0.001466946 0.0018673505 0.0015892404 -0.0042047687 -0.009398068 -0.0010331607 -0.0047958842 0.0019983146
-0.0023901858 0.004865877 -0.006727967 -0.003995825 -0.002465505 0.008479687 -0.007813685 -0.004725597
-0.00011012015 0.012147647 0.0010646905 -0.0047366912 0.002013112 -0.010098475 -0.020547226 -0.0007796864
-0.002340679 -0.004468083 -0.007962955 -0.0040105893 -0.00159937 0.00067757897 -0.006076908 -0.012360092
-0.0053125834 -0.007904067 0.0025503691 -0.02288119 -0.0011055113 -0.007227638 -0.0021667841 -0.0017524733
-0.008437381 0.004805316 -0.0049370984 -0.016048113 -0.02094037 0.0036523798 -0.0053546093 0.0055792304
00000000: 0701 34bc 8828 0abc 685f ac3a aa6c 4ebc
00000010: 8aeb 5dba 47bd c3bc fd55 c5bc 8b85 21bb
00000020: fc9e dd3a ab9f a5bb 0296 5dbb 6bc2 dcbb
00000030: 1b0e 31bb d5a9 8b38 2e68 7abb 0c0e 6cbb
00000040: 8a46 c0ba e3c1 f43a 0f4e d03a 28c8 89bb
00000050: 5bfa 19bc 1f6b 87ba cb26 9dbb 28f6 023b
00000060: aaa4 1cbb ef71 9f3b 4776 dcbb 69ef 82bb
00000070: 4f94 21bb 63ee 0a3c f804 00bc 2ed9 9abb
00000080: 4ef0 e6b8 ed06 473c 168d 8b3a 3f36 9bbb
00000090: 6aee 033b 1374 25bc a852 a8bc de63 4cba
000000a0: 1466 19bb ff68 92bb 0e77 02bc 436b 83bb
000000b0: f4a1 d1ba 8e9f 313a cd20 c7bb fc81 4abc
000000c0: 2e15 aebb 0f80 01bc 1824 273b 5571 bbbc
000000d0: cee6 90ba d2d5 ecbb 9b00 0ebb 3fb3 e5ba
000000e0: f13c 0abc ea75 9d3b 62c7 a1bb 5577 83bc
000000f0: 248b abbc c45c 6f3b b875 afbb fad1 b63b

bn4.running_mean f4 [64]
0.14085281 0.2322974 0.32559943 0.20034559 -0.056992475 0.48238623 0.38963342 0.045329496
-0.6886085 0.2991994 -0.25653324 -0.0920184 0.5681002 0.15695316 -0.49325252 0.27576286
0.35798135 -0.6893532 -0.31557184 0.018125366 0.591348 -0.13948871 0.14706893 0.18099505
-0.05674686 -0.21243678 0.63856816 -0.30610362 -0.34907764 -0.14392373 0.66386807 0.23205222
0.06214227 -0.16685456 0.07724481 0.23907739 -0.1983673 0.45979318 0.023356961 -0.069207184
0.13720968 -0.17939016 0.5109275 0.48383015 0.20258003 -0.084423706 -0.830915 0.22334987
-0.33717307 0.60034347 -1.0497006 0.4767791 0.13672812 0.3448422 0.40484616 -0.16365322
-0.097350165 -0.6906057 0.10866504 0.32363528 -0.21624231 0.10243848 0.045470588 -0.94724804
00000000: b83b 103e 5fdf 6d3e f8b4 a63e 6527 4d3e
00000010: f170 69bd 54fb f63e 087e c73e 6cab 393d
00000020: a648 30bf aa30 993e 5358 83be 2574 bcbd
00000030: 046f 113f 54b8 203e 988b fcbe ca30 8d3e
00000040: 5549 b73e 7479 30bf a292 a1be a67b 943c
00000050: 9562 173f 21d6 0ebe 3d99 163e c456 393e
00000060: 656f 68bd 0789 59be 3479 233f 9db9 9cbe
00000070: 4eba b2be be60 13be 42f3 293f 199f 6d3e
00000080: e588 7e3d ecdb 2abe 8732 9e3d b4d0 743e
00000090: cc20 4bbe 036a eb3e 1957 bf3c 7fbc 8dbd
000000a0: b280 0c3e 0eb2 37be 25cc 023f 96b8 f73e
000000b0: 2471 4f3e 56e6 acbd d8b6 54bf d4b5 643e
000000c0: f3a1 acbe 1cb0 193f 975c 86bf 641c f43e
000000d0: 7502 0c3e 288f b03e ff47 cf3e b694 27be
000000e0: 865f c7bd 89cb 30bf c78b de3d 86b3 a53e
000000f0: a06e 5dbe 44cb d13d 5e3f 3a3d d97e 72bf

bn4.running_var f4 [64]
0.08746085 0.08706974 0.08901171 0.14608331 0.08670367 0.1304752 0.085381426 0.12953965
0.19006903 0.124361396 0.090546794 0.08645352 0.112223804 0.16030684 0.18901983 0.10278958
0.07999254 0.10588736 0.13901219 0.13875544 0.13206348 0.09401936 0.12108227 0.10735868
0.13049336 0.11432891 0.097011864 0.1012467 0.14300902 0.09479418 0.1309927 0.111068636
0.09206818 0.1374204 0.11401328 0.13042763 0.124263495 0.08708661 0.08905565 0.084327586
0.1451883 0.111839764 0.09425081 0.09815591 0.12871389 0.16366759 0.15279725 0.09300097
0.08361046 0.13519019 0.18446892 0.11673489 0.12322548 0.12520938 0.15363455 0.15045282
0.09193059 0.06941252 0.10018098 0.084546216 0.11416143 0.12155229 0.0809454 0.15121493
00000000: ad1e b33d 9f51 b23d c54b b63d dd96 153e
00000010: b291 b13d 4a9b 053e 75dc ae3d 0ba6 043e
00000020: 75a1 423e 30b1 fe3d 9970 b93d 8b0e b13d
00000030: 98d5 e53d 7a27 243e 6a8e 413e 5883 d23d
00000040: 21d3 a33d 79db d83d 3659 0e3e e815 0e3e
00000050: a63b 073e 398d c03d fbf9 f73d dede db3d
00000060: 0da0 053e 4725 ea3d 28ae c63d 6e5a cf3d
00000070: f570 123e 7323 c23d f322 063e f477 e33d
00000080: 3e8e bc3d efb7 0c3e cb7f e93d d28e 053e
00000090: dc7d fe3d 775a b23d cf62 b63d f1b3 ac3d
000000a0: 3eac 143e 3f0c e53d 9206 c13d f705 c93d
000000b0: 93cd 033e 7a98 273e e276 1c3e 4b77 be3d
000000c0: f63b ab3d 4c6f 0a3e 6ce5 3c3e b412 ef3d
000000d0: a45d fc3d e336 003e 6052 1d3e 4e10 1a3e
000000e0: 1b46 bc3d 2728 8e3d b02b cd3d 9126 ad3d
000000f0: 78cd e93d 68f0 f83d b4c6 a53d 16d8 1a3e
