task3/code/q1_model.pt (torch, 596570 bytes, 28 tensors)

conv1.weight f4 [16, 3, 7, 7]
0	0xbdbaf11f	-0.091280214
1	0xbd4f3bad	-0.05059402
2	0xbdc79a79	-0.0974626
3	0xbc9e7386	-0.019342195
4	0xbdece2ed	-0.1156672
5	0x3c9c0357	0.019044561
6	0xbdd2eda1	-0.1029923
7	0xbde55417	-0.111976795
8	0xbdc2aaad	-0.0950521
9	0xbc24f700	-0.010068655
10	0xbd92606e	-0.07147299
11	0xbbc8d3c5	-0.0061287605
12	0xbdd228a8	-0.10261661
13	0xbdb3e29d	-0.087834574
14	0xbd8d88fe	-0.06910895
15	0xbd493733	-0.049124908
16	0xbdc7dc95	-0.097588696
17	0x3cc1989b	0.023632338
18	0xbd2f5801	-0.042808536
19	0x3bdcb660	0.006735608
20	0x3cf353d8	0.029703066
21	0xbc0dc97e	-0.0086539965
22	0x3bc1a721	0.005909816
23	0x3d74d642	0.059774645
24	0xbd4fca9d	-0.050730336
25	0x3c8ee1d7	0.017441673
26	0xbd2deddc	-0.04246317
27	0x3d3310da	0.043717243
28	0x3d8183c4	0.063239604
29	0xbd8ea3aa	-0.0696481
30	0x3d938cb1	0.07204569
31	0x3d3facf3	0.046795797
32	0x3d4a7831	0.04943103
33	0x3d4d2c83	0.050091278
34	0x3d97aba4	0.07405785
35	0x3c2ad2d1	0.010426239
36	0xbd2431c4	-0.040086523
37	0x3b671999	0.003526306
38	0xbccf0c0e	-0.025274303
39	0x3d34407c	0.04400681
40	0x3cd435e4	0.025904603
41	0xbc507707	-0.012723691
42	0x3d02039b	0.03174172
43	0x3dfc90ef	0.123323314
44	0x3d23aee2	0.039961703
45	0x3d625528	0.055256993
46	0x3d3c22fa	0.045931794
47	0x3d96653b	0.07343527
48	0x3dfd3d12	0.12365164
49	0x3bb96aac	0.005658468
50	0xbbff24c9	-0.0077863676
51	0xbca32342	-0.019914273
52	0xbc2d3913	-0.01057269
53	0x3bda5193	0.0066625564
54	0xbd013cd3	-0.031552147
55	0xbdd05381	-0.10172177
56	0xbdb1c418	-0.0867998
57	0x3d28c338	0.0412018
58	0xbcce13ae	-0.025155868
59	0xbdb51959	-0.08842725
60	0xbb874665	-0.0041282647
61	0x3d5c5410	0.053791106
62	0xbdcac708	-0.099012434
63	0xbdb42ac5	-0.0879722
64	0xbd623106	-0.055222534
65	0xbc91226b	-0.017716607
66	0xbd09d74d	-0.033652592
67	0xbc85f166	-0.01635046
68	0xbdacc7e5	-0.08436564
69	0x3cbb4ebc	0.022864692
70	0x3d4570d8	0.04820332
71	0x3d1d3559	0.038380954
72	0xbd8e0c20	-0.069359064
73	0xbd8dda32	-0.06926383
74	0x3d16cf62	0.03681887
75	0x3bd566ab	0.006512483
76	0x3cdc9cd3	0.026930248
77	0xbdb895dc	-0.090129584
78	0xbaac9aeb	-0.0013168728
79	0x3d7b7a13	0.061395716
80	0x3d492065	0.04910316
81	0x3cae40ee	0.021271195
82	0x3d13c99e	0.03608095
83	0xba2cc6bd	-0.00065908936
84	0xbd26a756	-0.040686928
85	0xbc5d966c	-0.013524633
86	0xbcf5270c	-0.029925846
87	0x3dc45226	0.09585981
88	0x3da3d567	0.07999688
89	0x3d862616	0.06550233
90	0xbd1d597e	-0.038415425
91	0x3d9b1bad	0.07573638
92	0x3d4b1899	0.049584005
93	0x3db0d840	0.086349964
94	0x3bbea554	0.0058180485
95	0x3d8103f0	0.06299579
96	0x3e0190f7	0.12652956
97	0x3db68325	0.089117326
98	0x3d4a362d	0.049368072
99	0xbcf704fa	-0.03015374
100	0x3d3b7ba7	0.04577222
101	0xbda0c45c	-0.078499526
102	0xbbefb0d3	-0.0073147803
103	0xbd7d20c2	-0.06179882
104	0xbd32c3c7	-0.04364374
105	0xbd010422	-0.031498082
106	0xba7f0190	-0.0009727711
107	0x3d826740	0.063673496
108	0x3d065b35	0.032801826
109	0xbc0cec0d	-0.008601201
110	0x3d453d7a	0.04815433
111	0xbd82f197	-0.06393736
112	0x3d03741b	0.03209315
113	0xbc3e767b	-0.011624928
114	0xbca313bd	-0.019906873
115	0x3bb90a01	0.0056469445
116	0xbd84abd6	-0.064780876
117	0x3bae47bc	0.00531861
118	0x3c0e5ee3	0.008689615
119	0x3d8123af	0.06305634
120	0xbcca359e	-0.02468377
121	0x3ce9676a	0.028491694
122	0x3dad8c84	0.08474067
123	0xbcffff28	-0.031249598
124	0x3da25012	0.079254285
125	0xbd5e35a9	-0.054250393
126	0x3d0e1e53	0.03469689
127	0x3d24b90f	0.040215548
128	0x3ce9f010	0.028556854
129	0x3d96fa33	0.073719405
130	0xbcaf0c2c	-0.021368109
131	0x3cf8c456	0.030367058
132	0xbbc10b7d	-0.005891262
133	0xbd743c91	-0.059628073
134	0xbc0a321a	-0.008434797
135	0xbd30b853	-0.043144535
136	0x3d52b45f	0.051441547
137	0x3cd5ce5c	0.026099376
138	0x3ccaa7e5	0.024738261
139	0xbcb8a873	-0.02254126
140	0xba9e8fad	-0.0012097262
141	0xbc99ab58	-0.01875846
142	0x3d09dc81	0.033657555
143	0x3dc1dfdc	0.09466526
144	0x3d006969	0.031350527
145	0xbca54ae5	-0.020177314
146	0xbd43a036	-0.04776021
147	0x3d1fd78c	0.03902392
148	0xbc8b04ca	-0.016970057
149	0xbc63def0	-0.013908133
150	0xba2b7d9f	-0.00065418513
151	0x3c95c821	0.018283905
152	0x3d48c4d8	0.04901585
153	0x3dc56720	0.0963881
154	0x3d3b12ce	0.04567223
155	0x3db7e792	0.089797154
156	0xbc9d17fe	-0.01917648
157	0x3d4780f6	0.04870697
158	0xbd0aa0c3	-0.03384472
159	0x3db5e6b5	0.088818945
160	0x3d76c6fc	0.06024836
161	0x3d9814b5	0.074258246
162	0xbd54408f	-0.05181938
163	0x3d9da92d	0.07698283
164	0x3dbc6185	0.09198288
165	0x3db7a457	0.08966892
166	0x3d306df9	0.043073628
167	0x3de95b77	0.11394399
168	0x3d2426cf	0.040076073
169	0x3d64115a	0.05568061
170	0xbbd3df7b	-0.00646585
171	0xbd577080	-0.052597523
172	0x3c412912	0.011789577
173	0x3d1c31de	0.038133495
174	0xbca87b79	-0.020566689
175	0xbd967c97	-0.073479824
176	0xbdcb4443	-0.09925129
177	0xbd428c90	-0.047497332
178	0x3d7d8596	0.061894976
179	0x3bf3710d	0.007429248
180	0xb91e10bd	-0.0001507429
181	0x3cc56072	0.02409384
182	0x3c53db4d	0.012930703
183	0xbddfa7c4	-0.10920671
184	0xbdcecfb2	-0.100982085
185	0xbd6d1109	-0.057877574
186	0xbd95433a	-0.07288213
187	0x3cd79ae1	0.02631897
188	0x3d777aca	0.060419835
189	0xbdf44915	-0.11928002
190	0xbde7752f	-0.11301648
191	0xbe01dfd4	-0.1268304
192	0xbc64bda3	-0.013961229
193	0x3cd6d37c	0.02622389
194	0xbdc130a1	-0.09433103
195	0xbd507096	-0.05088862
196	0x3d1f6246	0.03891208
197	0xbcdce520	-0.026964724
198	0x3dd181a0	0.10229802
199	0x3d7a46e5	0.061102767
200	0x3c8ba9b4	0.017048694
201	0x3d42fdf5	0.047605474
202	0x3d8f835b	0.07007476
203	0xbd10e99f	-0.03537905
204	0xbd5f599d	-0.05452882
205	0x3c8d4dc2	0.017248992
206	0x3d022a64	0.031778708
207	0x3d0c0b43	0.034190428
208	0x3ce99a97	0.028516097
209	0x3dcc4619	0.099743076
210	0xbd3cde07	-0.04611018
211	0xbc8e6baf	-0.017385332
212	0x3cfa7938	0.03057538
213	0xbd1ff734	-0.03905411
214	0x3d230714	0.039801672
215	0x3c5b8d74	0.013400424
216	0x3dac3bd1	0.084098466
217	0xbd982aa9	-0.07430012
218	0xbc831555	-0.016001383
219	0xbb930523	-0.0044866963
220	0xbd80204b	-0.062561594
221	0xbd49c071	-0.049255792
222	0x3d692d4a	0.056927957
223	0x3ca31463	0.019907182
224	0x3c5c34e2	0.013440343
225	0xbde02c07	-0.109458975
226	0xbd861bd2	-0.06548275
227	0xbda1eef7	-0.07906907
228	0x3cef5cba	0.02921902
229	0x3c289660	0.010289758
230	0x3c9b97fe	0.018993374
231	0xbd5b8454	-0.053592995
232	0xbdcfd0f4	-0.101472765
233	0xbc529a28	-0.0128541365
234	0xbcbf147c	-0.023325197
235	0xbd94dccb	-0.072686754
236	0x3cf149f0	0.029454201
237	0x3cab7790	0.020931035
238	0xbde5da6e	-0.11223303
239	0x3c0b1274	0.008488286
240	0x3bd5acbf	0.006520837
241	0xbd42b45b	-0.04753528
242	0xbda3441d	-0.07971976
243	0xbbba00de	-0.005676373
244	0x3d9bf7a1	0.07615591
245	0x3da655d9	0.08121843
246	0xbd374dfd	-0.04475211
247	0xbc931bb2	-0.017957542
248	0x3db24155	0.08703867
249	0x3d6806d1	0.056647126
250	0x3d85c45f	0.065315954
251	0xbceebe20	-0.029143393
252	0x3d7ed609	0.06221584
253	0xbd828143	-0.06372311
254	0x3b5ad8b8	0.0033393335
255	0x3c85f380	0.016351461

conv1.bias f4 [16]
0	0x3d6abe3e	0.057310335
1	0x3d21a1bc	0.039460883
2	0xbd68aa1e	-0.05680286
3	0x3d1cc64a	0.03827504
4	0x3ca3d43b	0.01999866
5	0xbd1945fc	-0.037420258
6	0xbd8bcc85	-0.068261184
7	0x3c289543	0.010289493
8	0x3bf43fee	0.00745391
9	0xbd28895f	-0.041146632
10	0xbd7de275	-0.061983544
11	0xbcf6e888	-0.030140176
12	0x3c997375	0.018731812
13	0x3d80c208	0.062870085
14	0x3d7698b9	0.06020424
15	0xbd14fe56	-0.036375366

bn1.weight f4 [16]
0	0x3f80f7e5	1.0075651
1	0x3f859639	1.0436469
2	0x3f757fed	0.95898324
3	0x3f7d69b2	0.98989403
4	0x3f7b5b5e	0.9818629
5	0x3f802069	1.0009891
6	0x3f832172	1.0244582
7	0x3f76f3c2	0.96465695
8	0x3f745a51	0.9545031
9	0x3f77d5a3	0.9681036
10	0x3f7b4b32	0.98161614
11	0x3f75086d	0.9571598
12	0x3f897660	1.073925
13	0x3f7cf9bf	0.9881858
14	0x3f840bc6	1.0316093
15	0x3f73541e	0.9505023

bn1.bias f4 [16]
0	0x3d59ebab	0.053203266
1	0x3dd4cdd3	0.1039082
2	0x3c77389c	0.01508918
3	0x3d261f70	0.040557325
4	0x3d1d1d14	0.03835781
5	0x3d8e808f	0.06958114
6	0x3e099ba5	0.1343828
7	0x3d0be525	0.034154076
8	0xbd07482c	-0.033027813
9	0xbc2046d9	-0.009782516
10	0xbc41b975	-0.011824002
11	0x3da258e8	0.07927114
12	0x3db9afc3	0.09066727
13	0x3c83e677	0.016101105
14	0x3e60405c	0.21899551
15	0xbb39b47e	-0.0028336341

bn1.running_mean f4 [16]
0	0x3d440789	0.04785875
1	0x3d50d9a7	0.05098882
2	0xbdb28683	-0.08717062
3	0x3bb99432	0.005663418
4	0x3cffcc24	0.031225272
5	0xbcf87a54	-0.030331768
6	0xbd5f9507	-0.054585483
7	0x3c60308d	0.01368345
8	0x3ccbb2bc	0.0248655
9	0xbd8e442b	-0.06946596
10	0xbcc97940	-0.02459395
11	0xbb745a8c	-0.0037285415
12	0x3cfa3387	0.030542148
13	0x3d13ead8	0.036112636
14	0x3d8eee2e	0.06979023
15	0xbe0d83e3	-0.13819842

bn1.running_var f4 [16]
0	0x3f122b5a	0.570974
1	0x3f3e2301	0.7427216
2	0x3e000e30	0.12505412
3	0x3f5308b3	0.8243515
4	0x3ea795ca	0.32731467
5	0x3e612338	0.21986091
6	0x3f0c00da	0.546888
7	0x3e81cf0f	0.25353286
8	0x3e2f0fad	0.17095824
9	0x3d956ed9	0.07296533
10	0x3eada37c	0.3391379
11	0x3ee36d69	0.4441941
12	0x3f3c206b	0.73486966
13	0x3eadd968	0.3395493
14	0x3f25c792	0.64757645
15	0x3f4f6a2d	0.81021386

conv2.weight f4 [32, 16, 3, 3]
0	0x3daf73fe	0.08567046
1	0xbd0ba818	-0.034095854
2	0xbd86e849	-0.06587274
3	0xbd80d448	-0.062904894
4	0x3d2170e3	0.039414298
5	0xbd1152a3	-0.0354792
6	0x3d4dfff2	0.050292917
7	0xbd4cf28e	-0.050036006
8	0xbbf130b3	-0.0073605417
9	0xbdc5ff02	-0.096677795
10	0x3c9bc0e9	0.019012885
11	0xbce878c8	-0.028377905
12	0x3cf6855d	0.03009289
13	0xbdab9d65	-0.0837963
14	0xbc3caf12	-0.011516349
15	0x3d5a69e6	0.05332365
16	0xbc379534	-0.011205006
17	0xbd9320e1	-0.071840055
18	0xbd928b09	-0.07155425
19	0xbdc73816	-0.097274944
20	0xbc0b8215	-0.008514901
21	0x3d0f908e	0.035049967
22	0x3c3a5152	0.011371927
23	0x3c571f7c	0.013130065
24	0xbd9be2f2	-0.07611646
25	0xbc4b1df2	-0.012397276
26	0xbd4bd690	-0.04976517
27	0xbd99227d	-0.07477281
28	0x3d18318f	0.037156638
29	0x3db32e6f	0.08749091
30	0xbb002dd2	-0.001955856
31	0x3d93beab	0.072141014
32	0x3d485690	0.048910677
33	0xbd0b2880	-0.03397417
34	0xbca28d4c	-0.019842766
35	0xbd911dae	-0.07085739
36	0xbdab63ea	-0.083686665
37	0xbdabf9e3	-0.083972715
38	0xbca10868	-0.019657329
39	0x3c2c51f2	0.010517584
40	0x3d524095	0.05133112
41	0x3b1220de	0.0022297422
42	0x3ce88c47	0.028387202
43	0x3d8c66c1	0.06855536
44	0x3d9bee3c	0.07613799
45	0x3d119e2f	0.035551246
46	0x3d2d6ae7	0.04233828
47	0x3d1279ba	0.03576062
48	0xbbc84b0e	-0.006112463
49	0xbd257406	-0.04039385
50	0xbd627e02	-0.05529595
51	0xbd8c1763	-0.06840398
52	0x3d9be4b9	0.07611985
53	0x3d08ecd1	0.03342897
54	0xbd01e781	-0.03171492
55	0xbd26c6e8	-0.040717036
56	0x3d2f2937	0.042763915
57	0xbcb23960	-0.021755874
58	0xbdb535be	-0.08848141
59	0x3d96cbea	0.07363112
60	0x3ae21bf6	0.0017250765
61	0xbd123aaf	-0.035700496
62	0x3ca06f28	0.019584253
63	0xba215f75	-0.0006155887
64	0xbd2fe435	-0.042942245
65	0x3ce84e92	0.028357778
66	0x3d22f7e3	0.039787184
67	0xbbf15bb3	-0.0073656677
68	0xbcd764b6	-0.02629314
69	0x3c447de3	0.011992904
70	0xbd347ff4	-0.044067338
71	0x3d9641b7	0.07336753
72	0x3d1e617c	0.038667187
73	0xbd17b4df	-0.037037726
74	0xbd1348af	-0.03595799
75	0x3d96a93a	0.07356496
76	0x3d96b509	0.073587485
77	0x3c966d0e	0.018362548
78	0xbdad202a	-0.084534004
79	0xbcc7c501	-0.024385931
80	0x3b904f06	0.0044039516
81	0x3d1403b4	0.036136344
82	0x3d5a2a2b	0.05326287
83	0x3ba32e7d	0.004979907
84	0x3d671653	0.056417774
85	0x3d76a436	0.060215198
86	0x3d0e3542	0.03471876
87	0x3d19f3c0	0.037585974
88	0xbd9135e0	-0.07090354
89	0x3c010e56	0.007876953
90	0xbd216f16	-0.03941258
91	0x3d5f2f42	0.054488428
92	0xbdb0e625	-0.086376466
93	0xbc9a4d57	-0.018835707
94	0xbd5a61ae	-0.05331581
95	0x3cd6ddce	0.026228812
96	0x3d3ba299	0.045809362
97	0x3d327978	0.043572873
98	0x3dae8eb8	0.08523315
99	0xbd66b08b	-0.05632071
100	0x3c211898	0.009832524
101	0xbce61ba1	-0.028089346
102	0x3d0b04c4	0.03394009
103	0xbbc727ee	-0.006077758
104	0xbd26caa8	-0.04072061
105	0xbd3328ad	-0.043739963
106	0x3c4030b9	0.011730366
107	0xbd37f89f	-0.044914838
108	0xbda1a01b	-0.07891866
109	0x3d37892a	0.044808544
110	0xbd9b1f8d	-0.07574377
111	0xbdb8c65a	-0.090222076
112	0xbda57ca2	-0.080804124
113	0xbd6f32b0	-0.05839795
114	0xbdb0fd0b	-0.08642014
115	0xbc24c53f	-0.010056793
116	0xbd74b114	-0.059739187
117	0xbc8559cc	-0.01627817
118	0xbd86841b	-0.06568166
119	0x3b580f62	0.0032968153
120	0xbd40a5a0	-0.047032952
121	0x3d1bc6dd	0.038031448
122	0x3dad508c	0.08462629
123	0xbd1e3647	-0.03862598
124	0xbc56c6c4	-0.013108913
125	0x3da4d505	0.08048443
126	0x3c67f4ae	0.014157457
127	0xbd8082f5	-0.06274978
128	0xbd375b0d	-0.044764567
129	0xbd9d7812	-0.07688917
130	0x3d31b169	0.043382082
131	0xbd306c83	-0.043072235
132	0x3cd11abc	0.025525443
133	0x3d72ed46	0.059308313
134	0xbd8b2121	-0.06793428
135	0xbdab7326	-0.08371572
136	0x3d60d2a0	0.054888368
137	0x3d4e326c	0.050341055
138	0x3d89e5b0	0.067332625
139	0x3d079e7a	0.03311012
140	0xbd2f5c57	-0.04281267
141	0x3d4ed85e	0.050499313
142	0x3d126251	0.035738293
143	0xbbe04098	-0.0068436377
144	0x3d606452	0.054783173
145	0x3cb69adf	0.022290645
146	0xbd8afa76	-0.06786053
147	0x3d2676b1	0.040640537
148	0xbd53e42a	-0.051731266
149	0xbd406b4a	-0.04697732
150	0xbd8531bc	-0.06503627
151	0x381ca9f1	3.735157e-05
152	0x3c207d6f	0.009795531
153	0xbd018a03	-0.03162576
154	0xbd972b0d	-0.07381258
155	0x3c8805c9	0.016604321
156	0x3d40f243	0.04710604
157	0x3c7f89eb	0.015596847
158	0xbc959b5b	-0.018262556
159	0x3d4dc632	0.050237842
160	0xbd04f9dd	-0.03246485
161	0x3d86fa0c	0.065906614
162	0x3d925a04	0.07146075
163	0xbd79b03f	-0.060959097
164	0x3d58c956	0.052926384
165	0xbd92ac40	-0.0716176
166	0xbb4c4b6d	-0.0031172887
167	0x3cba0db5	0.022711614
168	0xbd5d1677	-0.053976502
169	0x3d3b79da	0.045770504
170	0xbc840352	-0.016114864
171	0x3c94cb9c	0.018163495
172	0xbd1c1eff	-0.038115498
173	0x3d6c73b4	0.05772753
174	0xbd2bac20	-0.041912198
175	0xbcea10f0	-0.02857253
176	0xbd9b5a35	-0.07585565
177	0xbd93058d	-0.07178793
178	0x3d4e9e6b	0.050444048
179	0x3cdebf7b	0.027190914
180	0xba0076b6	-0.0004900502
181	0x3ceb8729	0.028750973
182	0x3c650439	0.013978058
183	0xbd10834f	-0.035281476
184	0xbc1aa708	-0.009439237
185	0xbd896a66	-0.06709747
186	0xbd4aa162	-0.049470313
187	0x3db7ea59	0.08980245
188	0xbd6eccf8	-0.058300942
189	0x3d4b1886	0.049583934
190	0x3d706b88	0.0586963
191	0xba83d73b	-0.001005865
192	0x3d6eac94	0.058270052
193	0xbd7ba5d0	-0.061437428
194	0xbd7312d9	-0.059344146
195	0x3d1845a6	0.037175797
196	0x3da02550	0.07819617
197	0x3d2d701c	0.042343244
198	0xbdc55f89	-0.096373625
199	0xbdbc1b7e	-0.09184931
200	0xbd703493	-0.05864389
201	0xbd756b90	-0.059917033
202	0x3d41dd65	0.04733028
203	0xbd88b959	-0.06675977
204	0xbd8ebc6a	-0.06969531
205	0xbdb44873	-0.08802881
206	0x3d357041	0.044296507
207	0x3d678c95	0.056530554
208	0x3da64580	0.08118725
209	0x3da6508f	0.08120834
210	0x3c939a68	0.018017963
211	0x3a862969	0.001023573
212	0xbc93af7d	-0.018028015
213	0xbd0fae79	-0.0350785
214	0x3d833c57	0.06407993
215	0x3cf9e2af	0.030503599
216	0xbd57fff4	-0.05273433
217	0xbd97cf53	-0.07412591
218	0x3c4cfcaf	0.012511416
219	0x3d2e8f2c	0.042617008
220	0xbd88d0cd	-0.066804506
221	0x3d1f1461	0.038837794
222	0x3cb97899	0.022640513
223	0x3d3b61b9	0.045747492
224	0xbca404dd	-0.02002185
225	0xbd8a2c52	-0.06746735
226	0x3d8cc885	0.068741836
227	0x3d0c8179	0.034303162
228	0xbc95ccf5	-0.018286208
229	0xbd999021	-0.074981935
230	0x3c400f30	0.011722371
231	0xbc6e33ee	-0.014538748
232	0xbd888997	-0.06666868
233	0x3d104adc	0.03522764
234	0x3c6029d0	0.013681844
235	0x3c1b9d26	0.009497916
236	0xbdd2f4c5	-0.10300592
237	0x3d274894	0.0408407
238	0xbd7519b2	-0.059838958
239	0x3bd6fdb3	0.006561005
240	0x3d4e8877	0.05042311
241	0x3d2cd6fc	0.042197213
242	0xbd83e94c	-0.06440982
243	0x3dbb1565	0.0913494
244	0xbc242beb	-0.0100202365
245	0x3a317948	0.00067700865
246	0xbd926617	-0.07148378
247	0x3d926d1f	0.071497194
248	0xbda585a5	-0.08082131
249	0x3d122765	0.0356821
250	0xbc6ad8d7	-0.014333925
251	0xbda34606	-0.0797234
252	0xbc2444d7	-0.010026178
253	0xbda84de7	-0.08217984
254	0x3d5a6dc3	0.053327333
255	0x3b9406ed	0.004517427

conv2.bias f4 [32]
0	0xbcacd72c	-0.021098696
1	0xbd79053a	-0.060796
2	0x3d95292a	0.07283242
3	0xbd093508	-0.03349784
4	0xba282111	-0.00064136187
5	0xbd45adb6	-0.048261367
6	0xbc82361b	-0.01589494
7	0xbbe0b8c1	-0.006857962
8	0x3c09579c	0.008382704
9	0x3d33ec6c	0.04392664
10	0xbd3cc7c8	-0.046088964
11	0x3d78c2a2	0.06073249
12	0x3d075d40	0.033047915
13	0x3cd39042	0.025825623
14	0xbc950030	-0.018188566
15	0x3da7b6b3	0.08189144
16	0x3c4ce5e4	0.012505982
17	0x3d8f3c7f	0.069939606
18	0x3c6387c8	0.013887353
19	0xbd853679	-0.065045305
20	0xbd9f18b6	-0.07768385
21	0x3d2b96ba	0.04189179
22	0xbd83bb12	-0.06432165
23	0xbd706e64	-0.058699027
24	0x3cc1fd3b	0.02368032
25	0x3d814b51	0.063131936
26	0x3c4d18b0	0.012518093
27	0xbd1212ca	-0.03566245
28	0x3b2a4589	0.0025981388
29	0x3be90392	0.0071110213
30	0xbca08daa	-0.0195988
31	0xbda083dd	-0.07837651

bn2.weight f4 [32]
0	0x3f7e6236	0.9936861
1	0x3f7e6a52	0.9938098
2	0x3f8155f0	1.0104351
3	0x3f78cde6	0.97189176
4	0x3f7c5ab9	0.9857593
5	0x3f817a6b	1.0115484
6	0x3f79bd6a	0.9755465
7	0x3f7f0ae9	0.9962602
8	0x3f84d12b	1.0376333
9	0x3f811f34	1.0087647
10	0x3f7e272b	0.99278516
11	0x3f8339d5	1.0252024
12	0x3f7d03b8	0.988338
13	0x3f793de3	0.97360057
14	0x3f795112	0.9738933
15	0x3f7cafcf	0.9870576
16	0x3f81fba8	1.0154924
17	0x3f78014e	0.9687699
18	0x3f80a620	1.0050697
19	0x3f7ccfc8	0.9875455
20	0x3f7d1728	0.9886346
21	0x3f76de19	0.96432644
22	0x3f81483a	1.0100167
23	0x3f7a9367	0.9788117
24	0x3f7b50a3	0.98169917
25	0x3f83ec2c	1.0306449
26	0x3f793912	0.9735271
27	0x3f802d6e	1.0013864
28	0x3f811f4d	1.0087677
29	0x3f7dbc49	0.99115425
30	0x3f82af91	1.0209829
31	0x3f81989f	1.0124701

bn2.bias f4 [32]
0	0x3ba463a6	0.005016762
1	0x3c37a8c1	0.011209668
2	0x3d0678ad	0.03282993
3	0xbc9ded6a	-0.019278247
4	0xba4e88de	-0.0007878671
5	0x3ccebe4c	0.025237225
6	0xbc6034c3	-0.013684454
7	0xbc232a3f	-0.009958803
8	0x3a18dbf9	0.00058311183
9	0x3cebbf18	0.028777644
10	0xb8afec94	-8.3887164e-05
11	0x3cfba695	0.030719081
12	0x3bebe98f	0.007199473
13	0xbccdb3ab	-0.025110086
14	0xbc4c8fde	-0.0124854725
15	0x3bc154dc	0.0059000086
16	0x3d11bc22	0.035579808
17	0xbcbeabe1	-0.023275318
18	0x3cba22a2	0.022721592
19	0xbc98153d	-0.018564815
20	0x3a814fdb	0.0009865718
21	0xbb9d5ae8	-0.0048020966
22	0x3b1e5e0f	0.002416495
23	0xbc9c2f93	-0.019065654
24	0x39dd16f0	0.00042169495
25	0x3d302d35	0.043011863
26	0xbcbb9115	-0.022896329
27	0x3c3063f8	0.010766022
28	0x3ceddc02	0.029035572
29	0x3bdc3c84	0.006721081
30	0x3c51792b	0.012785236
31	0x3cbb13a2	0.02283651

bn2.running_mean f4 [32]
0	0xbe9a0a23	-0.3008586
1	0xbe8ebbb1	-0.27877572
2	0xbecffe5a	-0.40623742
3	0x3f2a838f	0.6660699
4	0xbe8f53ae	-0.2799353
5	0xbf227ba7	-0.6346993
6	0xbeb0cd8c	-0.3453182
7	0xbe4b1637	-0.19832693
8	0xbe292704	-0.1651879
9	0xbe06da0a	-0.13169113
10	0xbeef7825	-0.4677135
11	0xbeaeb17a	-0.3411978
12	0xbedc050f	-0.4297261
13	0xbe3f9a54	-0.18711215
14	0x3dab8fc0	0.083770275
15	0xbe8b0eba	-0.27159673
16	0xbdc99b95	-0.09844128
17	0x3dca06cf	0.0986458
18	0xbe9857c1	-0.2975445
19	0x3eb930d5	0.36170068
20	0xbef43512	-0.4769674
21	0xbd984065	-0.07434157
22	0xbe876a22	-0.2644816
23	0x3c81fd7b	0.01586794
24	0xbce1b722	-0.027553145
25	0xbf037fb0	-0.5136671
26	0x3e532fd7	0.20623718
27	0xbec4950d	-0.38394967
28	0xbe9fa436	-0.3117997
29	0x3bf9f8cb	0.0076285354
30	0xbee0eda0	-0.43931293
31	0xbe95f527	-0.292886

bn2.running_var f4 [32]
0	0x3e5728a7	0.21011601
1	0x3e8e60d5	0.27808252
2	0x3ef71008	0.48254418
3	0x3ea2a75b	0.31768307
4	0x3e951037	0.29113933
5	0x3ef7b327	0.4837887
6	0x3e78839b	0.24268954
7	0x3e3fc826	0.18728694
8	0x3f0c3050	0.5476122
9	0x3ec9ad2e	0.39389938
10	0x3eb42922	0.35187632
11	0x3e88eb46	0.26742
12	0x3e4314ff	0.19050978
13	0x3e633519	0.22188224
14	0x3e50b632	0.20382002
15	0x3e2e055a	0.16994229
16	0x3ec3d1f7	0.38246128
17	0x3e30318d	0.17206402
18	0x3eb32472	0.34988743
19	0x3e8b2f43	0.27184495
20	0x3ec00696	0.37505025
21	0x3e71926e	0.23591015
22	0x3ea2a088	0.317631
23	0x3e3a46bd	0.18191047
24	0x3e8c00e9	0.27344444
25	0x3eae23ab	0.34011588
26	0x3e478825	0.19485529
27	0x3e8b0893	0.2715498
28	0x3e770e7f	0.24126624
29	0x3e919921	0.2843714
30	0x3f1fa430	0.62359905
31	0x3e967488	0.2938578

conv3.weight f4 [48, 32, 3, 3]
0	0x3c9cd7c6	0.019145858
1	0xbca8149d	-0.020517642
2	0xbd58ed30	-0.052960575
3	0xbb75cae0	-0.0037504956
4	0x3d16028f	0.036623534
5	0xbd49e45e	-0.049290054
6	0x3d1a4c25	0.037670273
7	0xbcef2dd5	-0.02919666
8	0x3d113049	0.03544644
9	0xbcc22a3b	-0.023701778
10	0xbd204445	-0.039127607
11	0x3d3d5a43	0.04622866
12	0xbd04db7c	-0.03243588
13	0x3cd42360	0.025895774
14	0xbc9c3142	-0.019066457
15	0x3cc1a63a	0.023638833
16	0x3d5d3ee5	0.05401506
17	0x3a981c6c	0.001160515
18	0xbb8c5b82	-0.0042833695
19	0x3cca3c3a	0.024686921
20	0x3d671249	0.056413922
21	0x3cacf850	0.021114498
22	0xbd4251ec	-0.047441408
23	0x3d7d1ccc	0.06179504
24	0xbd91919a	-0.071078494
25	0xbc815b4e	-0.015790608
26	0x3af97c91	0.0019034316
27	0xbd489f52	-0.048980065
28	0x3d1f0511	0.03882319
29	0xbba3e485	-0.005001607
30	0xbcc80930	-0.024418443
31	0x3b6ba0db	0.0035954032
32	0xbc84081b	-0.016117146
33	0x3d042be3	0.032268416
34	0x3972d49f	0.00023158126
35	0xbc05116e	-0.008121831
36	0xbd7e68ff	-0.06211185
37	0xbd3db7df	-0.04631793
38	0x3d066e12	0.032819815
39	0xbd072bb5	-0.033000667
40	0xbd748ef8	-0.059706658
41	0x3c93df5b	0.01805084
42	0xbd4d666a	-0.050146498
43	0x3cb93ba0	0.02261144
44	0xbd157d3a	-0.03649638
45	0x3cb48471	0.02203581
46	0xbd2876d4	-0.04112895
47	0xbc9519cb	-0.018200776
48	0xbb9a8edc	-0.004716737
49	0x3d37196d	0.044701982
50	0xbd104fc4	-0.03523232
51	0x3ca59a16	0.020215075
52	0xbd60969e	-0.05483114
53	0x3d153d96	0.036435686
54	0xbcd70874	-0.026249148
55	0xbd7e29cf	-0.06205159
56	0xbd6a6ece	-0.057234578
57	0x3d675b82	0.056483753
58	0xbd481dd5	-0.048856575
59	0x3cebc94d	0.028782511
60	0xbcc5fd7d	-0.024168724
61	0x3cde24d8	0.027117178
62	0x3cbcb083	0.023033386
63	0xbd71a839	-0.05899832
64	0xbb5aec8c	-0.0033405153
65	0x3d29859d	0.04138719
66	0xbb4431fe	-0.0029937024
67	0xbd5520db	-0.052033287
68	0x3c8c13c5	0.01709927
69	0x3d1a834a	0.037722863
70	0xbc546115	-0.012962599
71	0x3c9827fd	0.018573755
72	0x39dcdd0b	0.0004212636
73	0x3d2463e1	0.040134314
74	0x3c86c4a6	0.016451191
75	0xbc55cfc2	-0.013050022
76	0xbd69902d	-0.057022262
77	0xbbf51b64	-0.007480072
78	0xbd012575	-0.031529862
79	0x3d047687	0.0323396
80	0x3d0bae03	0.034101497
81	0xbd0ac713	-0.03388126
82	0x3d29db29	0.041468773
83	0xbd673315	-0.0564452
84	0xbd1b494c	-0.0379117
85	0xbc38af5f	-0.0112722805
86	0xbce2d484	-0.027689226
87	0x3d13c57b	0.036077004
88	0xbc716046	-0.014732426
89	0x3d175719	0.036948297
90	0xbd451eaa	-0.048124947
91	0xbccee352	-0.02525488
92	0xbcbba5ad	-0.022906149
93	0x3cf459dd	0.029828006
94	0xbd03c389	-0.0321689
95	0x3d1be446	0.038059495
96	0xbbb78f43	-0.005601795
97	0x3cb1c8fb	0.02170228
98	0x3ccd0b02	0.025029663
99	0x3c7c86cb	0.0154129965
100	0x3b1dec4d	0.0024097145
101	0x3d59a3d5	0.053134758
102	0xbd86864b	-0.06568583
103	0x3c8978ba	0.0167812
104	0x3d404152	0.046937294
105	0xbd108af5	-0.03528877
106	0xbcfd01b5	-0.030884603
107	0xbc104be0	-0.0088071525
108	0xbd1460e3	-0.03622521
109	0xbbdf9eb6	-0.0068243397
110	0x3d6288d6	0.05530628
111	0x3b1d234e	0.0023977342
112	0xbd1ba247	-0.037996557
113	0xbd4a3c64	-0.049374
114	0xbb1095c1	-0.0022061917
115	0x3baf70fb	0.0053540445
116	0xbd6728d1	-0.05643541
117	0x3d4d2d72	0.05009217
118	0xbd317e70	-0.04333347
119	0xbd2532d9	-0.040331695
120	0x3c1e1d67	0.009650565
121	0xbceeb665	-0.029139707
122	0xbc0270b6	-0.007961443
123	0x3d862a7f	0.06551074
124	0xbd3f9f0d	-0.046782542
125	0x3d39e45c	0.045383796
126	0xbceb81b4	-0.02874837
127	0xbb0fe44e	-0.0021956149
128	0x3abbc05d	0.0014324296
129	0x3cfe05c1	0.031008603
130	0x3d05c585	0.032659072
131	0xbd12d103	-0.03584386
132	0xbd080f75	-0.033217866
133	0x3c9181b9	0.017762052
134	0x3a0f57d3	0.0005468104
135	0xbc4e0464	-0.012574289
136	0x3d6de6da	0.058081485
137	0xbc9e1a02	-0.01929951
138	0xbd68a0c8	-0.056793958
139	0x3b683cdc	0.0035436666
140	0xbbbc2d65	-0.005742716
141	0x3d1ccbf7	0.038280454
142	0x3d353e80	0.044249058
143	0x3bee2170	0.0072671697
144	0x3cac34af	0.021021215
145	0xbd78ca1d	-0.060739625
146	0xbcd69375	-0.02619336
147	0xbb7daf95	-0.0038709391
148	0xbd1d168f	-0.03835159
149	0xbd25375c	-0.040335998
150	0xbcbd68cb	-0.023121258
151	0xbba5f264	-0.0050642956
152	0xbbf2a6db	-0.0074051446
153	0xbd84a83a	-0.06477399
154	0x3b98a7a3	0.0046586557
155	0xbd19c286	-0.037539028
156	0xbd15c4c0	-0.03656459
157	0x3ccca970	0.024983138
158	0xbd366cd1	-0.04453737
159	0xbd640597	-0.055669393
160	0xbd44231e	-0.047885053
161	0xbce4f920	-0.027950823
162	0x3af1ed8d	0.0018457636
163	0xbc8f73b5	-0.017511228
164	0xbc6138a6	-0.013746416
165	0xbd097efa	-0.03356836
166	0xbc79e558	-0.015252434
167	0xbd4c836a	-0.049930014
168	0xbd55779b	-0.052116018
169	0x3d1c33a6	0.038135193
170	0x3d688a09	0.056772266
171	0xbcf5364f	-0.029933123
172	0xbc9d40ba	-0.019195903
173	0xbd1c3082	-0.0381322
174	0xbd77bf32	-0.060485072
175	0xbbb70ec5	-0.0055864775
176	0x3be74fd3	0.0070590763
177	0xbd4ae41a	-0.04953394
178	0x3ce7e49a	0.028307248
179	0xbd4c8fa3	-0.04994167
180	0xbc15d88c	-0.009145867
181	0x3d2c105b	0.042007785
182	0xbce5d67e	-0.02805638
183	0xb9f61575	-0.00046936763
184	0xbd4e2c08	-0.05033496
185	0x3d4b7c62	0.049679168
186	0xbd566283	-0.05234004
187	0xbc521892	-0.012823241
188	0xbd0c6c80	-0.03428316
189	0xbc91a6e6	-0.017779779
190	0xbb9db1be	-0.0048124483
191	0x3c3f524d	0.011677337
192	0xbbdbee20	-0.0067117363
193	0x3d0a4af6	0.033762895
194	0xbd2b7d9d	-0.04186784
195	0xbc92a847	-0.017902507
196	0x3c375f47	0.0111921495
197	0xbd00ffea	-0.03149406
198	0x3ce5fcce	0.028074648
199	0xbd486ade	-0.04893004
200	0xbd47e8a7	-0.04880586
201	0x3d232eac	0.03983943
202	0x39c648b8	0.00037819683
203	0xbd553644	-0.052053705
204	0xbc8cc2af	-0.017182676
205	0x3d3d08ab	0.046150845
206	0x3d3ee743	0.046607267
207	0x3c6846a4	0.014176998
208	0xbc539314	-0.012913484
209	0xbc9c9bf3	-0.019117331
210	0xbbd29b66	-0.0064272163
211	0xbd65deee	-0.056120805
212	0xbc2f800f	-0.010711684
213	0xbd054022	-0.032531865
214	0x3d0b8578	0.034062833
215	0x3d1017b4	0.035178855
216	0x3bc68f0a	0.006059532
217	0xbd0314e6	-0.032002352
218	0x3a14b43a	0.0005672608
219	0xbcdd75cd	-0.02703371
220	0xbcf4231b	-0.029801896
221	0xbd77bb4e	-0.060481362
222	0xbb9999be	-0.004687517
223	0xbc067509	-0.008206614
224	0x3c321d67	0.010871268
225	0x3bb58ab5	0.005540217
226	0xbd52fa20	-0.05150807
227	0x3c8498e8	0.016186193
228	0x3d3315bc	0.0437219
229	0xbcc6220d	-0.024186159
230	0x3ce6782d	0.028133476
231	0x3c08c619	0.008348011
232	0xbbb4a9c8	-0.0055134036
233	0x3d6f5ad4	0.05843623
234	0x3d4c5def	0.04989427
235	0x3d1cd485	0.038288612
236	0xbcdf036b	-0.02722331
237	0xbd3e72c6	-0.046496175
238	0xbca6b74a	-0.02035107
239	0xbd442111	-0.047883097
240	0xbc92de7c	-0.017928354
241	0xbd552da8	-0.052045494
242	0xbd8b952f	-0.06815564
243	0x3cb409ce	0.021977331
244	0xbd6cdc18	-0.057827085
245	0xbd5ad852	-0.053428955
246	0xbcb292b6	-0.021798473
247	0xbc73cf2a	-0.014880935
248	0xbcacc4d3	-0.021089947
249	0xbc872dbd	-0.016501302
250	0x3d4327ed	0.047645498
251	0xbd480e25	-0.048841614
252	0x3bac3a6e	0.005255989
253	0xbc211713	-0.0098321615
254	0x3ad86637	0.0016509955
255	0xbd3d75ab	-0.046254795

conv3.bias f4 [48]
0	0x3c91838b	0.01776292
1	0xbc1f4e8f	-0.00972332
2	0x3c404319	0.011734747
3	0x3cef9f95	0.0292509
4	0x3b89fe49	0.0042112214
5	0x3d39d0d6	0.045365177
6	0xbd6f2369	-0.05838338
7	0x3cc1da71	0.023663731
8	0x3cbbbe17	0.02291779
9	0xbd58e99a	-0.052957155
10	0xbd4b8fbb	-0.04969762
11	0x3cfa8aa9	0.030583696
12	0x3c02868f	0.007966652
13	0x3c54e6d2	0.012994485
14	0xbd3b3808	-0.045707732
15	0x3d516e30	0.051130474
16	0xbd55c423	-0.052189004
17	0x3a94b434	0.0011345209
18	0xbd5e77aa	-0.05431334
19	0xbc8d882d	-0.017276848
20	0xbbfdd756	-0.0077466173
21	0xbc0142ff	-0.007889508
22	0xbd03249a	-0.032017328
23	0x3d33ab9a	0.043864824
24	0x3cd6249b	0.026140502
25	0xbd3ba0ac	-0.045807526
26	0x3d2f3a4f	0.042780217
27	0x3c9e2be1	0.019308032
28	0xbcdc5d65	-0.026900003
29	0x3cc5c411	0.024141343
30	0xbcb29827	-0.021801068
31	0x3d15db38	0.036586016
32	0x3d019d6d	0.031644274
33	0x3cd94cae	0.026525822
34	0x3c526817	0.0128422
35	0xbd051122	-0.032487042
36	0x3ce27a7a	0.027646292
37	0x3a693e24	0.00088975043
38	0x3c8af545	0.016962657
39	0xbd46e093	-0.048554014
40	0xbc4b69ab	-0.01241533
41	0x3cc69683	0.024241691
42	0x3c10f594	0.008847613
43	0x3d63a1e4	0.055574313
44	0x3d6cf161	0.057847384
45	0xbd50ddb4	-0.050992683
46	0xbc9b4a19	-0.018956231
47	0xbd391458	-0.045185417

bn3.weight f4 [48]
0	0x3f7f2a15	0.9967359
1	0x3f7eadc1	0.9948388
2	0x3f7b0199	0.9804931
3	0x3f811d0a	1.0086987
4	0x3f7caed5	0.9870427
5	0x3f77ab94	0.9674618
6	0x3f805ecb	1.0028929
7	0x3f7d51cb	0.9895293
8	0x3f7fd1c0	0.9992943
9	0x3f806a73	1.0032486
10	0x3f7b24d3	0.98103064
11	0x3f8034ae	1.0016077
12	0x3f7e1004	0.9924319
13	0x3f7c772d	0.9861935
14	0x3f7a7a01	0.97842413
15	0x3f7f9dc0	0.9985008
16	0x3f8059ed	1.0027443
17	0x3f7a5255	0.9778188
18	0x3f7b1305	0.98075897
19	0x3f7e8d70	0.99434566
20	0x3f7f35a4	0.99691224
21	0x3f831ad2	1.024256
22	0x3f7c0978	0.9845195
23	0x3f807ed3	1.0038704
24	0x3f810e84	1.0082555
25	0x3f7cc00a	0.9873053
26	0x3f7f3d4d	0.9970291
27	0x3f80fd2f	1.0077266
28	0x3f7dadd6	0.9909338
29	0x3f803e27	1.0018967
30	0x3f7f3796	0.9969419
31	0x3f7b92ab	0.9827067
32	0x3f7cfe3c	0.9882543
33	0x3f7dcedf	0.99143785
34	0x3f7c8b62	0.9865018
35	0x3f832f5f	1.0248832
36	0x3f7fd3c1	0.99932486
37	0x3f7ece65	0.99533683
38	0x3f818f57	1.0121869
39	0x3f822213	1.0166649
40	0x3f7d9a38	0.99063444
41	0x3f7ac488	0.9795613
42	0x3f7f1f3f	0.9965705
43	0x3f7d86e1	0.99033934
44	0x3f812de3	1.0092129
45	0x3f802358	1.0010786
46	0x3f81c0a6	1.0136917
47	0x3f809cc3	1.004784

bn3.bias f4 [48]
0	0xbaf17b1e	-0.0018423533
1	0xbc1d5b79	-0.009604328
2	0xbc87da14	-0.01658348
3	0x3bd582ef	0.0065158526
4	0xbbb17ee0	-0.005416736
5	0xbcced2a5	-0.025246928
6	0x3bfda13a	0.007740167
7	0xbbbee8e1	-0.005826101
8	0x3b0a057a	0.0021060393
9	0xbcb99074	-0.022651888
10	0xbc1d4998	-0.009600066
11	0x3a83c65f	0.0010053626
12	0xbb4f8af8	-0.0031668525
13	0xbcfe57e9	-0.031047778
14	0xbc863225	-0.016381333
15	0xbbba642b	-0.0056882105
16	0xbc04d209	-0.008106717
17	0xbc628af1	-0.0138270715
18	0xbbc921b7	-0.0061380523
19	0x3a762a60	0.00093904696
20	0x3b729784	0.003701658
21	0xba929d2d	-0.0011185758
22	0xbb8f6f27	-0.004377264
23	0xb8e9170f	-0.00011114601
24	0xbc307c11	-0.010771767
25	0xbc522b5a	-0.012827719
26	0x3a521837	0.00080144726
27	0xbc2842dd	-0.010269848
28	0xbbc4841f	-0.0059971954
29	0xbd04c969	-0.032418642
30	0xbc25a29a	-0.010109568
31	0xbbed617c	-0.007244287
32	0xbb8e2ab7	-0.004338588
33	0xbc85b360	-0.016320884
34	0xbafd6de9	-0.0019335124
35	0xbd0d8b12	-0.034556456
36	0xbcc33941	-0.023831012
37	0x3c07f7b8	0.008298807
38	0xbd0729b9	-0.032998774
39	0x3a47b0d2	0.0007617596
40	0xbc1551cf	-0.009113743
41	0xbbde795c	-0.0067893695
42	0xbc8878cf	-0.016659169
43	0x3ba26302	0.0049556503
44	0xbc0ba7e0	-0.008523911
45	0xbaf78c37	-0.0018886392
46	0x3c067ad8	0.008207999
47	0xbb7965ae	-0.003805499

bn3.running_mean f4 [48]
0	0xbf34edbc	-0.70675254
1	0xbde1a70d	-0.110181905
2	0xbe1d19dd	-0.15341897
3	0x3d364df8	0.04450795
4	0x3e816232	0.2527023
5	0x3e980899	0.2969406
6	0xbeda46ec	-0.42632234
7	0xbf245d43	-0.64204806
8	0xbdf3c33b	-0.11902472
9	0xbe925e01	-0.28587344
10	0xbef1a9cd	-0.4719986
11	0xbea6aac9	-0.32552174
12	0x3d439e7a	0.047758557
13	0xbc9dbd59	-0.019255327
14	0x3d5fb4fc	0.05461596
15	0xbedb2920	-0.42804813
16	0xbdc85d65	-0.097834386
17	0x3d3d9cf2	0.046292253
18	0xbdf274a4	-0.11838654
19	0x3d817ac0	0.06322241
20	0xbefdcf7a	-0.49572355
21	0xbef866ba	-0.48515874
22	0xbec6fca7	-0.38864633
23	0xbeed4a7e	-0.46345896
24	0xbf0820f6	-0.53175294
25	0xbe0d451f	-0.13795899
26	0xbef994a5	-0.4874622
27	0xbd3f63fd	-0.046726216
28	0xbeab5cfd	-0.33469382
29	0x3d9047f6	0.070449755
30	0xbf50e611	-0.81601053
31	0xbf352ae1	-0.70768553
32	0xbe7aacca	-0.24479976
33	0x3b9ed274	0.0048468653
34	0xbe41aec7	-0.18914329
35	0xbe6b0cf0	-0.22954154
36	0x3c0c0f95	0.008548637
37	0xbdb88e35	-0.09011499
38	0xbf48e801	-0.7847901
39	0xbe8ebddd	-0.2787923
40	0xbf150650	-0.5821276
41	0xbe1b46cd	-0.15163727
42	0xbe47ebb9	-0.19523515
43	0xbdee1fda	-0.11627169
44	0xbe9c31c3	-0.30506715
45	0x3dd290fd	0.102815606
46	0xbf175175	-0.5910867
47	0xbf1e0f49	-0.61742073

bn3.running_var f4 [48]
0	0x3e8d27bc	0.27569377
1	0x3e22ee80	0.15911293
2	0x3e40663e	0.18789002
3	0x3e281761	0.16415168
4	0x3e4c43a3	0.19947676
5	0x3e373708	0.17892087
6	0x3e8968bd	0.2683772
7	0x3e821da0	0.25413227
8	0x3dc86255	0.0978438
9	0x3e804f62	0.25060564
10	0x3dc02758	0.09382504
11	0x3e543a6a	0.20725408
12	0x3e38eca9	0.18059029
13	0x3e153bce	0.14573595
14	0x3dd44516	0.103647396
15	0x3e20b080	0.1569233
16	0x3e2847f4	0.16433698
17	0x3e1bc434	0.15211564
18	0x3e0d57ea	0.13803068
19	0x3e7cf457	0.24702583
20	0x3e09ef5d	0.13470216
21	0x3e84b92f	0.25922534
22	0x3ec87ea3	0.39159116
23	0x3e1ee04d	0.15515251
24	0x3e3b052b	0.1826369
25	0x3e03368a	0.12813774
26	0x3e84fcb3	0.25974044
27	0x3e4516a4	0.19246918
28	0x3e3ba940	0.18326283
29	0x3db48d6a	0.08816035
30	0x3ea49504	0.3214494
31	0x3e1fa9e7	0.15592156
32	0x3e402210	0.18762994
33	0x3e3eb3f7	0.18623339
34	0x3eac1eeb	0.3361734
35	0x3dcd8adb	0.1003625
36	0x3e4c7781	0.19967462
37	0x3e02a3bb	0.1275777
38	0x3ec3478a	0.38140517
39	0x3e13d67e	0.14437291
40	0x3e06f01c	0.13177532
41	0x3ebdcc45	0.37069908
42	0x3e984e4d	0.2974724
43	0x3e909e5d	0.28245822
44	0x3dbeae99	0.093106456
45	0x3e3f8d2f	0.18706201
46	0x3e70883a	0.23489466
47	0x3e4bf789	0.19918646

conv4.weight f4 [64, 48, 3, 3]
0	0x3ce8c017	0.028411908
1	0xbd032e6c	-0.032026693
2	0x3cd07a7a	0.025449026
3	0xbcf2d0e7	-0.029640628
4	0xbd1343d1	-0.035953347
5	0xbcde201c	-0.02711492
6	0x3ccf2961	0.025288286
7	0xbd3202c5	-0.043459672
8	0x3cef42e5	0.029206702
9	0x3c30975a	0.0107782725
10	0xbca9c310	-0.020722896
11	0x3c448768	0.011995174
12	0x3ca51fda	0.02015679
13	0x3d150452	0.036381073
14	0x3b0ded9a	0.0021656514
15	0x3ce976ec	0.02849909
16	0xbc60fc12	-0.013731973
17	0x3caa3b3b	0.020780196
18	0x3d049329	0.032366905
19	0xbc081904	-0.008306745
20	0xbd163af1	-0.036677305
21	0xbc21c274	-0.009873021
22	0xbc115719	-0.008870863
23	0xbbea38d5	-0.007147888
24	0x3c67ca47	0.014147348
25	0x3d03b2da	0.032152988
26	0x3cfa8eb1	0.030585619
27	0x3b996abf	0.0046819146
28	0x3be8d650	0.007105626
29	0x3d12ea30	0.03586787
30	0x3d50d497	0.05098399
31	0x3d1e8df6	0.038709603
32	0x3d241f1b	0.040068727
33	0x3d82c921	0.063860185
34	0x3b983e26	0.0046460805
35	0x3ce19a83	0.027539497
36	0xbb0d6f5c	-0.0021581268
37	0xbc6f48f0	-0.014604792
38	0x3c3124cf	0.0108119985
39	0x3bcc9a91	0.0062440117
40	0xbcde7b02	-0.027158264
41	0x3cf17735	0.029475788
42	0xbcaf7aca	-0.021420855
43	0x3c7968a2	0.0152227
44	0x3d09d0b2	0.033646293
45	0xbcdac200	-0.026703835
46	0x3d1d9e07	0.038480785
47	0x3bdbed59	0.0067116437
48	0xbc05503a	-0.008136803
49	0x3ce9ee65	0.028556058
50	0xbc33f0aa	-0.010982672
51	0xbd4edcec	-0.050503656
52	0x3c460554	0.012086231
53	0xbcd62493	-0.026140487
54	0xbd006306	-0.031344436
55	0x3ac04ff6	0.0014672268
56	0xbd511da2	-0.05105365
57	0x3cf44a05	0.029820452
58	0xbd630195	-0.05542143
59	0xbd693f47	-0.05694511
60	0x3bcaa181	0.0061838035
61	0xbcf3a693	-0.029742515
62	0x3cd1c107	0.025604738
63	0xbc97f17b	-0.018547764
64	0xbd0d1702	-0.03444577
65	0x3bac43d1	0.005257108
66	0x3a636352	0.00086741627
67	0xbc8850b3	-0.016640043
68	0x3d1f0be9	0.038829718
69	0xbc171c9c	-0.00922313
70	0x3d1c3cf6	0.038144074
71	0x3b42aece	0.0029706242
72	0x3ad93d9f	0.0016574151
73	0x3cf227b1	0.029559942
74	0x3d441ed6	0.04788097
75	0x3c433627	0.011914766
76	0x3c914862	0.01773471
77	0xbc84f631	-0.016230674
78	0xbc990c5a	-0.018682647
79	0x3c920620	0.017825186
80	0xbc9e8ef1	-0.01935527
81	0xbd0f053a	-0.034917094
82	0xbced3bdd	-0.02895921
83	0x3c3a468b	0.011369358
84	0x3ccb22d9	0.02479689
85	0x3d2d1b64	0.04226245
86	0x3d61c0d8	0.05511555
87	0x3c530b28	0.012881078
88	0xbd0c0ed7	-0.03419384
89	0x3c61c1b1	0.01377909
90	0x3c6f5f2b	0.014610092
91	0x3d1729e4	0.036905184
92	0x3d47d173	0.04878373
93	0xbc9fc578	-0.01950334
94	0x3d04a397	0.032382574
95	0x3d07fecb	0.033201974
96	0x3d04a2f1	0.032381956
97	0x3c344cdb	0.011004652
98	0xbd3c1ec5	-0.04592778
99	0x3aa05084	0.0012231027
100	0xbcf671a1	-0.03008348
101	0xbd1c4418	-0.038150877
102	0xbcc941d0	-0.024567515
103	0x3c379591	0.011205093
104	0x3c6f9ec1	0.014625252
105	0x3d20fd97	0.039304342
106	0x3d18b4f3	0.03728194
107	0x3c2cfe2e	0.010558648
108	0xbc94e35d	-0.018174822
109	0xbc8a7277	-0.016900284
110	0x3b6c6ec2	0.003607676
111	0x3b6977df	0.0035624427
112	0xbc745554	-0.014912922
113	0xbced0a52	-0.028935585
114	0x3c77f937	0.015135101
115	0x3cf02af8	0.029317364
116	0xbc10cf07	-0.008838422
117	0xbacf71a4	-0.0015826714
118	0xb904ceb8	-0.0001266551
119	0xbd0be3a2	-0.034152634
120	0x3c53ab45	0.012919252
121	0xbb054113	-0.0020332977
122	0xbc97aaa6	-0.018513989
123	0x3d129825	0.035789628
124	0x3cc3d2fe	0.02390432
125	0xb9d7880e	-0.00041109364
126	0xbb4d8d57	-0.0031364763
127	0xbcd4ebad	-0.025991285
128	0xbc9340e6	-0.017975282
129	0xbc8b763a	-0.017024148
130	0xbcdae393	-0.026719844
131	0xbb81cea7	-0.0039614025
132	0xbd11a81e	-0.03556072
133	0xbb8b9784	-0.0042600054
134	0x3d18bd06	0.03728964
135	0xbb344e31	-0.0027512426
136	0x3c52e04c	0.012870859
137	0x3cd73030	0.026268095
138	0xbbdefb3f	-0.006804853
139	0x3c1ad0f9	0.009449237
140	0xbcb4e03b	-0.022079578
141	0xbc3de6e5	-0.011590694
142	0x3cc2e055	0.02378861
143	0x3c4d10ad	0.012516183
144	0x3cee5bae	0.02909645
145	0x3cbf07cd	0.02331915
146	0x3d219f11	0.03945834
147	0x3d40fe44	0.047117487
148	0xbd2cfec8	-0.042235166
149	0x3c957822	0.01824576
150	0x3c670eb8	0.01410263
151	0x3c9b67c6	0.018970381
152	0x3cb54101	0.022125723
153	0x3bf178c7	0.007369134
154	0x3d159ec2	0.036528356
155	0xbc61074a	-0.013734648
156	0xbd13a5e8	-0.036046892
157	0x3ce93f16	0.028472465
158	0x3d3c5923	0.045983445
159	0xbc8623b8	-0.016374454
160	0x3cee94e8	0.029123738
161	0xbc23153d	-0.009953794
162	0xbc92098f	-0.017826824
163	0xbc7183f3	-0.014740932
164	0xbb8aa4c2	-0.0042310664
165	0x3c861fd7	0.016372604
166	0xbd02c4e3	-0.031926047
167	0x3d3d7ebf	0.046263453
168	0xbcb64837	-0.022251232
169	0x3cb222ce	0.021745112
170	0x3b8583c2	0.0040745446
171	0x3ae33ef7	0.001733749
172	0xbbc8595f	-0.0061141695
173	0x3ca8643e	0.020555612
174	0x3cae276d	0.021259034
175	0x3d31c5f5	0.043401677
176	0x3d0f7fa5	0.03503384
177	0xbccb53c1	-0.02482021
178	0x3d46b883	0.048515808
179	0xbc4ae9d6	-0.012384852
180	0xbb0c9062	-0.0021448364
181	0xbcfdcfe6	-0.030982923
182	0x3b463dc4	0.0030249218
183	0xbd233da7	-0.039853718
184	0x3c6e1858	0.014532171
185	0xbd280f4c	-0.041030213
186	0xbc3ea3fd	-0.011635778
187	0xbd30c5df	-0.043157455
188	0x3ac7c0d7	0.0015239966
189	0xbc8a3bec	-0.016874276
190	0x3c3b645d	0.011437503
191	0x3ccfb47e	0.02535462
192	0x3d3dab5d	0.046306003
193	0xbc73f00d	-0.014888776
194	0xbc9e4459	-0.0193197
195	0xbc980918	-0.018559024
196	0xbd2455a8	-0.04012075
197	0xbcfee7db	-0.031116417
198	0xbd31b3a7	-0.04338422
199	0x3d22ef28	0.03977886
200	0x3d194e47	0.037428167
201	0xbb04992e	-0.0020232904
202	0x3b5172de	0.0031959335
203	0xbb11f3d0	-0.0022270568
204	0xbc6f1689	-0.014592775
205	0x3ce61fc0	0.028091311
206	0xbd0bc9c6	-0.034127973
207	0x3c84967e	0.016185042
208	0xbbf43da7	-0.0074536386
209	0x3d521779	0.051291917
210	0xbb4ab5dc	-0.003093115
211	0x3bd7ec61	0.006589458
212	0x3d89530d	0.06705294
213	0xbb7cf01a	-0.003859526
214	0x3d3fd5ae	0.04683464
215	0x3c022c69	0.0079451585
216	0xbd2c0c20	-0.04200375
217	0xbbfc21ab	-0.007694443
218	0xbd4f5ea6	-0.050627373
219	0xbd4177c6	-0.047233365
220	0x3c961abf	0.0183233
221	0xbd3debda	-0.046367504
222	0xbbcbda63	-0.006221102
223	0x3cb99a56	0.0226566
224	0xbd68fddc	-0.056882724
225	0x3b421f64	0.002962076
226	0x3c5cea92	0.01348366
227	0xbcb6bcb5	-0.02230678
228	0x3c2213d3	0.009892422
229	0x3d024dc6	0.03181245
230	0xbcfbf2b9	-0.030755388
231	0xbc5db658	-0.013532244
232	0xbd1d7521	-0.03844178
233	0x3b85c2a2	0.00408204
234	0xbc38699b	-0.011255647
235	0xbceb3e52	-0.02871624
236	0xbbcc7d90	-0.006240554
237	0x3cfb9304	0.030709751
238	0xbd043a22	-0.032282002
239	0xbc8cc5be	-0.017184135
240	0xbc6c148c	-0.014409196
241	0xbd0f1dc4	-0.034940496
242	0xbce98954	-0.028507866
243	0xbd2a9116	-0.04164227
244	0x3d4534f8	0.048146218
245	0x3d5b9e60	0.053617835
246	0x3d373972	0.04473252
247	0xbcac024f	-0.020997195
248	0x3c42af5a	0.011882627
249	0xbd3306b7	-0.043707576
250	0x3c50e7a4	0.01275054
251	0xbc1b76b9	-0.009488755
252	0x3cf65db9	0.030073987
253	0xbd3cf050	-0.046127617
254	0x3d0b2931	0.03397483
255	0xbcf7f760	-0.030269325

conv4.bias f4 [64]
0	0xbd320e49	-0.043470655
1	0x3cd20844	0.025638707
2	0xbbdd8a05	-0.006760838
3	0x3bf1a24c	0.0073740836
4	0xbd0d98ea	-0.03456966
5	0x3c963884	0.018337496
6	0xbbb00e56	-0.0053728027
7	0xbd31c6df	-0.04340255
8	0x3c1c8a6a	0.009554485
9	0x3c9f9546	0.019480359
10	0xbd303729	-0.043021355
11	0xbd39a852	-0.04532654
12	0x3d29a9b8	0.041421622
13	0x3d035051	0.032059018
14	0xbd2d3ec9	-0.042296205
15	0xbd00851b	-0.03137694
16	0xbcb0e6ad	-0.02159437
17	0x3d276a00	0.040872574
18	0x3c0bd2e5	0.008534168
19	0x3d266cd2	0.040631123
20	0xbb729fdb	-0.003702155
21	0x3cf93a39	0.03042327
22	0xbcc9da88	-0.024640337
23	0x3d3e1032	0.046402164
24	0xbc9fe5b0	-0.019518703
25	0xbd0515df	-0.03249156
26	0xbcc2a2e1	-0.023759307
27	0xbd38a9ce	-0.045083813
28	0xbc2f6e10	-0.010707393
29	0x3d32ceee	0.043654375
30	0xbc60070f	-0.013673558
31	0x3d267e60	0.040647864
32	0x3ce1764f	0.027522234
33	0x3ac8bb4c	0.0015314608
34	0xbd113dbe	-0.035459273
35	0x3c5722b3	0.0131308315
36	0xbd2b86bc	-0.04187654
37	0xbc847d79	-0.016173111
38	0x3d06237a	0.032748677
39	0xbcdb43d2	-0.026765738
40	0xbcc94f4e	-0.024573948
41	0x3c819a39	0.01582061
42	0xbcea032b	-0.028565964
43	0xbd3a7ad7	-0.045527305
44	0x38edccb0	0.00011339167
45	0xbc7f4423	-0.01558021
46	0x3d08af22	0.033370145
47	0x3d40c992	0.047067232
48	0x3d241cec	0.040066645
49	0x3ced7200	0.028985023
50	0xbd3ca4c5	-0.046055574
51	0x3c6c7c50	0.014433935
52	0x3cbe740f	0.0232487
53	0x3d2a7d27	0.04162326
54	0x3c0603a9	0.008179584
55	0x3c949e0c	0.018141769
56	0xbba9767d	-0.0051715956
57	0x3d26c35c	0.040713653
58	0x3d2367b9	0.03989384
59	0x3cc06117	0.023483796
60	0xbcf492a8	-0.029855087
61	0xbcbec65e	-0.023287948
62	0x3d1182a2	0.03552497
63	0xbc17f2cf	-0.009274199

bn4.weight f4 [64]
0	0x3f84d006	1.0375984
1	0x3f829b82	1.0203707
2	0x3f83dac5	1.0301138
3	0x3f843af7	1.0330495
4	0x3f82a362	1.020611
5	0x3f84d258	1.0376692
6	0x3f83e995	1.0305659
7	0x3f84397d	1.0330044
8	0x3f85208f	1.0400561
9	0x3f8470b5	1.0346895
10	0x3f82d088	1.0219889
11	0x3f86f456	1.0543315
12	0x3f83dd6b	1.0301946
13	0x3f817b7b	1.0115808
14	0x3f83195b	1.0242113
15	0x3f81f01a	1.0151398
16	0x3f823b1a	1.0174286
17	0x3f822adf	1.0169333
18	0x3f82734e	1.0191438
19	0x3f82134e	1.0162141
20	0x3f859d1e	1.0438573
21	0x3f81a142	1.0127337
22	0x3f82e8b5	1.0227267
23	0x3f82cd16	1.0218837
24	0x3f83ced5	1.0297495
25	0x3f837ffa	1.027343
26	0x3f83939a	1.027942
27	0x3f8374d3	1.0270027
28	0x3f8688eb	1.0510534
29	0x3f814ef8	1.0102224
30	0x3f8583ac	1.0430808
31	0x3f826104	1.0185857
32	0x3f80d1e0	1.0064049
33	0x3f83413c	1.0254283
34	0x3f8445e5	1.033383
35	0x3f8165b3	1.0109161
36	0x3f84f2ba	1.0386574
37	0x3f82ad9c	1.0209231
38	0x3f8654e3	1.0494655
39	0x3f8130c8	1.0093012
40	0x3f840a28	1.03156
41	0x3f81a102	1.0127261
42	0x3f80b39b	1.0054811
43	0x3f827c36	1.0194156
44	0x3f821e7b	1.0165552
45	0x3f8342dc	1.0254779
46	0x3f8276f6	1.0192554
47	0x3f8730c8	1.0561762
48	0x3f830d35	1.0238405
49	0x3f84873c	1.035377
50	0x3f846692	1.0343802
51	0x3f8375c4	1.0270314
52	0x3f8142bd	1.0098492
53	0x3f819dbf	1.0126265
54	0x3f8273eb	1.0191625
55	0x3f831599	1.0240966
56	0x3f825dda	1.0184891
57	0x3f8543b1	1.0411283
58	0x3f839d9e	1.0282476
59	0x3f835017	1.0258816
60	0x3f867aa0	1.0506172
61	0x3f81e5fa	1.0148308
62	0x3f82864f	1.0197238
63	0x3f825390	1.0181751

bn4.bias f4 [64]
0	0xbc4a9b71	-0.012366162
1	0xbc07babd	-0.008284268
2	0x3a98f76e	0.001167042
3	0xbc51b62c	-0.012799781
4	0xb9492ff9	-0.00019186725
5	0xbcc78cd8	-0.024359152
6	0xbcc86498	-0.02446203
7	0xbb315538	-0.002705885
8	0x3ab1709e	0.0013537591
9	0xbb86afcd	-0.0041103126
10	0xbb1f0643	-0.0024265207
11	0xbbdcabed	-0.0067343623
12	0xbae4e831	-0.0017464218
13	0x3ae3e09c	0.0017385664
14	0xbb42b561	-0.002971016
15	0xbb786ea2	-0.003790774
16	0xbab643ec	-0.001390574
17	0x3b066707	0.0020508186
18	0x399ec2fd	0.00030281386
19	0xbbb1bb4b	-0.0054239384
20	0xbc32e2eb	-0.010918359
21	0xba96ce5d	-0.0011505593
22	0xbba42981	-0.0050098305
23	0x3b0b5068	0.0021257643
24	0xbafa6398	-0.0019103168
25	0x3b89879e	0.004197075
26	0xbbc68edd	-0.006059511
27	0xbb68ca83	-0.0035521097
28	0xbb06386c	-0.0020480407
29	0x3c0603b4	0.008179594
30	0xbc040f79	-0.00806033
31	0xbbb8a30c	-0.005634671
32	0x3a67486f	0.0008822744
33	0x3c51421d	0.01277211
34	0x3ab255b2	0.0013605861
35	0xbb8b0082	-0.004242004
36	0x3af05fa8	0.0018339055
37	0xbc1ae0db	-0.009453024
38	0xbca409a6	-0.020024132
39	0xbaba187f	-0.0014197974
40	0xbabbe909	-0.0014336418
41	0xbb5962ee	-0.003317054
42	0xbc104b4e	-0.008807017
43	0xbb75ba9d	-0.0037495263
44	0xb86f4734	-5.7048353e-05
45	0x39e1e774	0.0004308779
46	0xbbbd02b0	-0.0057681426
47	0xbc5b6429	-0.013390579
48	0xbbc07ce6	-0.005874264
49	0xbbf4f63e	-0.0074756434
50	0x3b47d015	0.0030489017
51	0xbcc7a4e3	-0.024370616
52	0xba0cd4bc	-0.0005372276
53	0xbbd948a2	-0.006630973
54	0xbb0b2166	-0.0021229624
55	0xb96647b5	-0.00021961222
56	0xbc1a4952	-0.009416895
57	0x3bb732aa	0.0055907564
58	0xbbaf432d	-0.005348584
59	0xbc79b992	-0.015241997
60	0xbcb27ccd	-0.021788025
61	0x3ba5430c	0.005043393
62	0xbbcc9106	-0.006242874
63	0x3baa9b8e	0.005206532

bn4.running_mean f4 [64]
0	0x3e2771f3	0.16352062
1	0x3e6d2010	0.23156762
2	0x3e8e0051	0.27734616
3	0x3e63b2dc	0.22236198
4	0xbd67c4a9	-0.056584034
5	0x3eefd03a	0.46838552
6	0x3ec61530	0.3868804
7	0x3db1be93	0.08678927
8	0xbf279571	-0.65462404
9	0x3e82d094	0.25549757
10	0xbe9917c2	-0.29900938
11	0xbdb6299e	-0.088946566
12	0x3f105b19	0.56389004
13	0x3ddfde15	0.10931031
14	0xbf06294f	-0.5240678
15	0x3e80339e	0.2503938
16	0x3ec78172	0.38965946
17	0xbf307576	-0.6892923
18	0xbea893a9	-0.32925156
19	0x3d9ffd4b	0.07811984
20	0x3f0fd54f	0.5618486
21	0xbe288ac8	-0.16459191
22	0x3e066afc	0.13126749
23	0x3e5c3981	0.21506311
24	0xbdb3434a	-0.08753069
25	0xbe43db1e	-0.19126555
26	0x3f2493c0	0.6428795
27	0xbea1abdb	-0.31576428
28	0xbeb2aca8	-0.3489735
29	0xbe272cde	-0.16325709
30	0x3f247246	0.6423687
31	0x3e746eab	0.23870341
32	0x3db7bf28	0.08972007
33	0xbe3b7c10	-0.18309045
34	0x3db6fc3c	0.08934829
35	0x3e5e5247	0.21711074
36	0xbe31733d	-0.17329116
37	0x3ee5425f	0.447772
38	0x3d10b64b	0.035330098
39	0xbda8e4b2	-0.08246745
40	0x3e01c0e9	0.12671246
41	0xbe551b6f	-0.20811246
42	0x3f08e876	0.5347971
43	0x3ef1abb8	0.47201324
44	0x3e0b936d	0.13630457
45	0xbc958564	-0.018252082
46	0xbf55d084	-0.83521295
47	0x3e66195e	0.22470614
48	0xbea075ae	-0.31339782
49	0x3f12eaed	0.5738972
50	0xbf87e574	-1.0616899
51	0x3edb682d	0.42852917
52	0x3e098eb1	0.13433339
53	0x3e9d7aac	0.30757654
54	0x3eb47f87	0.35253546
55	0xbe27662c	-0.16347569
56	0xbe031d7c	-0.12804216
57	0xbf23ff42	-0.6406137
58	0x3d9c62f4	0.07636061
59	0x3eacb739	0.33733538
60	0xbe442af2	-0.19157007
61	0x3ddbb684	0.107281715
62	0x3d5619ab	0.052270573
63	0xbf685d72	-0.90767586

bn4.running_var f4 [64]
0	0x3db25742	0.08708049
1	0x3db847e2	0.089980856
2	0x3db5f2e4	0.08884218
3	0x3e164ec1	0.1467848
4	0x3db06b9a	0.08614273
5	0x3e06518c	0.13117045
6	0x3db8e66e	0.09028326
7	0x3e086eb7	0.13323484
8	0x3e36729b	0.17817156
9	0x3e000255	0.1250089
10	0x3dbb584a	0.09147699
11	0x3dac3401	0.084083565
12	0x3dee81e0	0.116458654
13	0x3e15be92	0.14623478
14	0x3e386a76	0.18009362
15	0x3dd03b91	0.101676114
16	0x3d97536c	0.07388958
17	0x3de33d74	0.11095706
18	0x3e161092	0.14654759
19	0x3e0b1480	0.13582039
20	0x3e0650e3	0.13116793
21	0x3dbd70ba	0.092500165
22	0x3def899f	0.11696171
23	0x3dd92c89	0.106041975
24	0x3e056222	0.13025716
25	0x3de32d68	0.11092645
26	0x3dc384a3	0.09546783
27	0x3dccf4c5	0.100076236
28	0x3e1649df	0.14676617
29	0x3dc2b7f9	0.09507746
30	0x3e019f01	0.12658311
31	0x3de330ba	0.11093278
32	0x3dc44f93	0.0958549
33	0x3e082ecd	0.13299103
34	0x3dd94eb5	0.10610715
35	0x3dffb55f	0.12485766
36	0x3de883e6	0.11353283
37	0x3dad7fa5	0.08471612
38	0x3dbc8ffb	0.092071496
39	0x3db315de	0.08744405
40	0x3e1b1cf4	0.15147763
41	0x3dd783f9	0.10523219
42	0x3dc6f2dc	0.097142905
43	0x3dc69182	0.09695722
44	0x3e05285f	0.13003682
45	0x3e202653	0.1563962
46	0x3e168f3d	0.14703079
47	0x3dc3d315	0.09561745
48	0x3db02af8	0.08601946
49	0x3e06e43a	0.13172999
50	0x3e43715d	0.19086213
51	0x3de5ec12	0.112266675
52	0x3dfd13b6	0.12357275
53	0x3dfb8761	0.12281681
54	0x3e0bc474	0.1364916
55	0x3e19973d	0.14999099
56	0x3dbd5c10	0.09246075
57	0x3d8efa8d	0.069813825
58	0x3dc431a2	0.09579779
59	0x3da54aaa	0.08070882
60	0x3ddff214	0.109348446
61	0x3df2072b	0.118177734
62	0x3da1042f	0.07862126
63	0x3e0cbb10	0.13743234
