task2/best_model.pth (torch, 14329 bytes, 5 tensors)

fc1.weight f4 [64, 10]
0	0xbddab6fd	-0.106794335
1	0x3d632430	0.055454433
2	0xbe1a1918	-0.15048635
3	0x3cb335d4	0.021876253
4	0xbd6cb6ee	-0.057791643
5	0xbb6898c3	-0.0035491444
6	0xbe6aa998	-0.22916257
7	0xbc2d0501	-0.010560275
8	0x3e867789	0.26263073
9	0x3e48a4ad	0.19594069
10	0x3e963cff	0.2934341
11	0x3d42350c	0.04741387
12	0xbc959a2d	-0.018261993
13	0x3e080524	0.13283211
14	0x3e91b8ea	0.2846139
15	0xbeb5d54a	-0.3551429
16	0x3e4ee063	0.20202784
17	0xbe9c9e6e	-0.30589622
18	0xbdaf18a7	-0.08549624
19	0xbdeff5ca	-0.117168024
20	0xbe432369	-0.19056477
21	0xbe4deea2	-0.20110562
22	0xbdf51616	-0.11967103
23	0x3e6d929f	0.23200463
24	0x3c553d41	0.013015092
25	0x3ed61764	0.4181472
26	0x3e22ca91	0.15897585
27	0x3cb4d7c4	0.022075541
28	0x3e5b984f	0.2144482
29	0x3cc53afb	0.024075976
30	0xbe29ee33	-0.16594772
31	0x3e6a3d6f	0.22874998
32	0x3d918c65	0.07106856
33	0xbe985390	-0.29751253
34	0x3dd72d6e	0.10506712
35	0x3ee0c5f1	0.43901017
36	0x3e050e53	0.12993746
37	0x3e8c0c85	0.27353302
38	0x3c89adce	0.01680651
39	0x3eb47fb5	0.35253683
40	0x3eae5090	0.3404584
41	0x3cff5606	0.031168949
42	0xbe21cb57	-0.15800224
43	0x3df05292	0.11734499
44	0xbe8010b2	-0.25012738
45	0xbd5c2011	-0.05374152
46	0xbc977e55	-0.018492857
47	0x3e45d15b	0.19318144
48	0xbe96aab5	-0.29427114
49	0xbca58c17	-0.020208402
50	0x3e6b01d1	0.22949912
51	0x3e93ef0d	0.2889332
52	0xbe74f5b1	-0.23921849
53	0xbc90e46e	-0.017687049
54	0xbe7d90c6	-0.24762258
55	0xbe06d5d4	-0.13167506
56	0x3ea714c6	0.32633036
57	0x3dd0938f	0.101843946
58	0xbdcd2476	-0.1001672
59	0x3c8af7f7	0.016963942
60	0xbd992358	-0.074774444
61	0xbe8cde9a	-0.27513582
62	0x3d49811e	0.0491954
63	0xbe664931	-0.22488858
64	0xbc045930	-0.008077905
65	0xbe86f3b6	-0.26357812
66	0x3e5081d4	0.20362025
67	0x3e5442d0	0.20728612
68	0xbe6be962	-0.23038247
69	0xbe849d9f	-0.25901505
70	0x3e0cde37	0.13756643
71	0x3e14e604	0.14540869
72	0xbd840934	-0.06447068
73	0x3d741fd9	0.059600685
74	0xbec579a1	-0.38569358
75	0xbe750bba	-0.23930255
76	0x3e97ee5d	0.29674044
77	0xbe077d12	-0.13231304
78	0xbe8a5202	-0.27015692
79	0x3e46c301	0.19410326
80	0x3e06a6dd	0.13149591
81	0x3dd99560	0.10624194
82	0xbde2de3c	-0.11077544
83	0xbe34e901	-0.17667009
84	0x3e4f9d1e	0.20274779
85	0x3e279991	0.16367175
86	0xbee2a2a1	-0.442647
87	0xbe490e92	-0.19634464
88	0x3e513c5c	0.20433182
89	0x3e1ed5fd	0.15511318
90	0x3e1dfd03	0.15428548
91	0x3d40d38b	0.047076743
92	0x3d828919	0.063738056
93	0x3e937e12	0.28807122
94	0x3e288560	0.16457129
95	0xbe8e073e	-0.277399
96	0x3db8ef66	0.09030037
97	0xbe2e0d70	-0.16997313
98	0x3e219171	0.15778138
99	0xbe94d572	-0.29069096
100	0xbe3b3049	-0.18280138
101	0x3e801514	0.2501608
102	0x3ddb6c45	0.1071401
103	0xbe05ccce	-0.13066408
104	0x3dd8385c	0.10557625
105	0x3e73e1c4	0.23816592
106	0x3bf9dc40	0.007625133
107	0xbe4bbfda	-0.19897404
108	0xbde972c6	-0.113988444
109	0x3eb80749	0.35943058
110	0x3e7bae94	0.24578315
111	0x3e13e185	0.14441498
112	0xbd436e52	-0.04771263
113	0x3e4d7c7c	0.20067018
114	0x3ea62f71	0.3245807
115	0x3bfb3a06	0.007666829
116	0x3e1dd1ac	0.15412015
117	0x3e2bd187	0.16779147
118	0xbe674644	-0.22585398
119	0xbe172269	-0.1475922
120	0x3e92624b	0.28590617
121	0x3db469bb	0.08809229
122	0x3e12c81d	0.1433415
123	0x3e49e28c	0.19715327
124	0x3e76b95b	0.24094145
125	0xbe9603b8	-0.29299712
126	0x3e9801d2	0.2968889
127	0xbd850447	-0.064949565
128	0x3e4803ac	0.1953265
129	0xbdbbbf3e	-0.09167336
130	0x3e01bd83	0.12669949
131	0xbd3a48c3	-0.045479547
132	0xbe67b337	-0.22626959
133	0x3e9afb5a	0.3026989
134	0xbe7b8748	-0.24563324
135	0x3e7ed02d	0.248841
136	0xbe1d4c9b	-0.15361254
137	0x3e445ce9	0.19176067
138	0x3df83ccc	0.12120971
139	0xbe5a6227	-0.21326505
140	0xbe94b9d0	-0.29048014
141	0xbe2059cb	-0.15659253
142	0x3dd275f0	0.10276401
143	0xbd6c4550	-0.05768329
144	0xbdbf8250	-0.09351027
145	0x3e4617aa	0.19344965
146	0x3e2f8174	0.17139226
147	0xbe641157	-0.2227224
148	0x3d75cd18	0.060010046
149	0xbe39c556	-0.18141684
150	0x3e57b3e5	0.21064718
151	0x3e719500	0.23591995
152	0x3ead1788	0.33807015
153	0xbcd0dcda	-0.025495935
154	0x3e53b5c0	0.20674801
155	0x3e473101	0.19452287
156	0x3dd0726d	0.10178075
157	0xbe1c271d	-0.15249296
158	0xbc418a8a	-0.011812815
159	0xbb77fbcf	-0.0037839299
160	0x3e20ccd9	0.15703143
161	0x3dcffce9	0.10155661
162	0xbe557238	-0.20844352
163	0x3dee80aa	0.116456345
164	0x3e9a5a24	0.30146897
165	0x3ebb27c4	0.36553776
166	0x3a5d8142	0.0008449742
167	0x3de1299e	0.10994266
168	0xbb84e722	-0.0040558735
169	0xbde68f8d	-0.11257849
170	0x3da2ae09	0.07943351
171	0x3d819aea	0.06328376
172	0x3e33777f	0.17526053
173	0xbe8e4d49	-0.2779334
174	0xbeadb113	-0.3392416
175	0xbd28a263	-0.04117049
176	0xbe23afd4	-0.15985042
177	0xbe037b78	-0.12840068
178	0xbe8beb94	-0.2732817
179	0x3e40cd55	0.18828328
180	0x3d0d394f	0.03447848
181	0xbe934746	-0.28765315
182	0x3dba6dc8	0.0910297
183	0x3df48f30	0.11941373
184	0xbdf4b0dd	-0.119477965
185	0x3e148952	0.14505509
186	0xbddfa66d	-0.10920415
187	0x3e9cca3d	0.30623046
188	0x3d619726	0.055075787
189	0xbec3ff87	-0.3828089
190	0x3db1f82c	0.08689913
191	0xbeafe349	-0.34353092
192	0xbe084ee1	-0.1331134
193	0x3dbb2eeb	0.09139808
194	0x3e8b677c	0.2722739
195	0xbcd3beb6	-0.025847774
196	0xbdaf0933	-0.085466765
197	0xbd1143c6	-0.035465024
198	0xbcb38461	-0.02191371
199	0xbec06414	-0.37576354
200	0xbdbd8686	-0.09254174
201	0xbdf01d21	-0.11724306
202	0x3e66b9db	0.22531836
203	0x3e44e1e6	0.19226798
204	0xbe1b7dd7	-0.15184723
205	0xbe27eb53	-0.16398363
206	0xbea7d75d	-0.32781497
207	0xbe31a4e7	-0.17348062
208	0x3e961682	0.29314047
209	0x3dcb289c	0.09919855
210	0x3c5ce81d	0.0134830745
211	0xbe2bfaea	-0.16794935
212	0xbdc03b86	-0.09386353
213	0x3e07bf4c	0.13256568
214	0x3d8835b9	0.06650872
215	0x3e8e4834	0.27789462
216	0xbe86f9d1	-0.2636247
217	0x3e711abe	0.23545358
218	0x3e814a57	0.2525203
219	0x3e627716	0.2211574
220	0xbe3e8e1a	-0.18608895
221	0xbeb0f587	-0.34562322
222	0xbd5fe71c	-0.054663762
223	0x3e21e4c5	0.15809925
224	0xbdf1bc4e	-0.118034944
225	0xbe6d8a9a	-0.23197404
226	0xbe2bae20	-0.16765642
227	0x3e1776b0	0.1479137
228	0x3cfdedb7	0.03099714
229	0x3e199d01	0.15001298
230	0x3e6b90fb	0.23004524
231	0x3e006372	0.12537935
232	0x3dedc1bd	0.11609218
233	0x3dbbe35c	0.09174225
234	0xbd951e37	-0.07281154
235	0xbe8ec43e	-0.27884096
236	0xbddb6a71	-0.107136615
237	0xbe9ab03f	-0.3021259
238	0xbea7b4df	-0.3275518
239	0xbe3d0ce3	-0.18461947
240	0xbdb2a797	-0.087233715
241	0x3eacb780	0.3373375
242	0xbd920468	-0.07129747
243	0x3d94bb44	0.072622806
244	0xbe578a97	-0.21048962
245	0xbe29bd77	-0.16576181
246	0x3e51e934	0.20499116
247	0x3da07838	0.0783543
248	0x3ed6b30c	0.41933477
249	0xbea6308d	-0.32458916
250	0x3d0b28e7	0.033974554
251	0xbe4610f6	-0.19342408
252	0xbe23dafb	-0.16001503
253	0x3dccc8ed	0.09999261
254	0x3e3fc604	0.1872788
255	0x3ec25294	0.37953627

fc1.bias f4 [64]
0	0x3e1e2224	0.15442711
1	0xbcb0fbad	-0.021604383
2	0x3e19d7f5	0.15023787
3	0xbe445da4	-0.19176346
4	0xbcf00bb3	-0.029302454
5	0xbdcb0c30	-0.09914434
6	0xbe399187	-0.1812192
7	0x3e4cd861	0.20004417
8	0xbd753516	-0.05986508
9	0xbe0effa4	-0.13964707
10	0x3bf3458a	0.007424061
11	0xbe053d45	-0.13011654
12	0xbdb43d2a	-0.088007286
13	0xbe5571e9	-0.20844235
14	0xbd610ed0	-0.054945767
15	0x3dd0d9b0	0.101977706
16	0xbe2cd678	-0.16878688
17	0x3dc688db	0.09694072
18	0x3d732731	0.059363548
19	0x3e130615	0.14357789
20	0xbe9640b6	-0.29346246
21	0xbdd6450c	-0.104623884
22	0x3e48dddd	0.19615884
23	0x3d1fa9bd	0.038980234
24	0x3aae9566	0.0013319671
25	0x3e8a545c	0.27017486
26	0xbda0519e	-0.07828067
27	0x3e9c6ce6	0.30551833
28	0x3dd3993d	0.10331962
29	0xbdfcc580	-0.12342358
30	0x3e5c6e98	0.21526563
31	0x3dedd926	0.116136834
32	0xbe6fe261	-0.234262
33	0xbe9a22f8	-0.30104804
34	0xbc1d8368	-0.009613849
35	0x3e9b27ef	0.30303904
36	0x3e8671fe	0.26258844
37	0x3c21b4fa	0.009869808
38	0x3e6ff4c5	0.23433216
39	0x3e84061d	0.25785914
40	0x3e4cd9e2	0.2000499
41	0x3e73e846	0.23819074
42	0xbde5be4f	-0.11217939
43	0xbd5683ea	-0.052371897
44	0xbdb5f64e	-0.088848695
45	0xbcb001ab	-0.02148517
46	0xbd9f01d7	-0.07764023
47	0xbe6ac014	-0.22924834
48	0x3dec1d0c	0.11528978
49	0x3e108cc6	0.14116201
50	0x3de47ea3	0.111569665
51	0x3e09d6b9	0.13460816
52	0xbd13b3a6	-0.036059998
53	0x3e568d0a	0.2095224
54	0x3e8ade64	0.27122796
55	0x3e9e98f9	0.30976084
56	0x3e8f2b7f	0.27962872
57	0x3d12302c	0.03569047
58	0x3d6f4f68	0.058425337
59	0xbe646030	-0.22302318
60	0xbe83a47b	-0.25711426
61	0xbe379441	-0.17927648
62	0x3e417da1	0.1889558
63	0x3df9dcd6	0.12200324

fc2.weight f4 [32, 64]
0	0xbdafce9e	-0.08584331
1	0xba7447d8	-0.0009318567
2	0xbdfa1a54	-0.12212053
3	0x3d467f6f	0.048461374
4	0x3d9c2974	0.07625094
5	0x3e04e8f4	0.1297949
6	0x3ddc4bcc	0.107566446
7	0xbd1ef4f1	-0.038807813
8	0xbdb46f30	-0.0881027
9	0x3df2d675	0.11857311
10	0x3d2d3d31	0.042294685
11	0x3a150dbf	0.0005685947
12	0x3e1b9957	0.15195213
13	0xbe021773	-0.12704258
14	0x3d91ffcc	0.071288675
15	0xbd662f23	-0.056197297
16	0xbdc7b1f3	-0.09750738
17	0x3e424078	0.18969905
18	0xbd7ae8ba	-0.0612571
19	0xbda74cf5	-0.08168975
20	0x3d3412b5	0.043963153
21	0x3b464cb5	0.0030258123
22	0xbe3da463	-0.1851974
23	0x3d87a40d	0.06623087
24	0xbd9278f5	-0.07151977
25	0x3d3050d2	0.043045826
26	0xbe8219de	-0.2541036
27	0xbe04b85b	-0.12960951
28	0xbd660f04	-0.056166664
29	0x3dcea9f0	0.10091007
30	0x3d8f1bfb	0.06987759
31	0x3d85f974	0.0654172
32	0xbdb19faa	-0.08673032
33	0x3d0aa5ec	0.03384964
34	0xbd8f4e58	-0.06997365
35	0xbdbec868	-0.09315568
36	0xbd6b2656	-0.057409607
37	0x3e530ff8	0.2061156
38	0x3d8d9d10	0.06914723
39	0xbb17e09a	-0.0023174644
40	0x3decef02	0.115690246
41	0xbd51608f	-0.051117476
42	0xbd9b2512	-0.0757543
43	0xbde57568	-0.11204034
44	0xbcacff38	-0.021117792
45	0x3dd41f58	0.10357541
46	0xbcda6150	-0.02665773
47	0x3da8cc51	0.08242095
48	0x3d9362a9	0.07196552
49	0xbba385bc	-0.0049903076
50	0xbcfd021d	-0.030884797
51	0x3dede9c5	0.116168536
52	0x3c753ff7	0.014968864
53	0xbd6a0788	-0.05713609
54	0x3ddd626f	0.1080979
55	0x3d6b6390	0.057467997
56	0x3e041697	0.12899242
57	0x3df03988	0.11729723
58	0xbdeccc15	-0.11562363
59	0xbd22dae8	-0.039759547
60	0xbdf739f6	-0.12071602
61	0xbb278f78	-0.0025567692
62	0x3c53115a	0.012882555
63	0x3e1a3449	0.15059008
64	0x3e5aba88	0.21360219
65	0x3d32cf90	0.04365498
66	0x3e045aec	0.12925309
67	0x3d88cfb9	0.06680245
68	0x3cf77db3	0.030211305
69	0xbcea9cd3	-0.028639233
70	0xbc19342d	-0.009350819
71	0xbda001b4	-0.07812825
72	0x3dc1f959	0.094713874
73	0xbdfddccd	-0.1239563
74	0x3e1ee22e	0.15515968
75	0x3d5bcc8f	0.05366188
76	0x3d01af95	0.03166159
77	0x3d5975ae	0.053090744
78	0x3dd9e7c6	0.106399104
79	0x3c35ca5c	0.0110956095
80	0xbd167b1f	-0.03673851
81	0xbe070db4	-0.13188821
82	0x3d9583e7	0.07300549
83	0x3ddff8ca	0.109361246
84	0xbdb4d633	-0.08829918
85	0x3e486df4	0.19573194
86	0x3e7ad81a	0.24496499
87	0xbd3c7d81	-0.046018127
88	0xbdb512f5	-0.088415064
89	0x3e373844	0.17892557
90	0x3e47e62a	0.19521394
91	0x3e38aacd	0.18033905
92	0xbd5b83a3	-0.053592335
93	0xbb300642	-0.0026859199
94	0xbc1faf87	-0.009746439
95	0xbdfd3482	-0.12363531
96	0x3bbf234f	0.0058330665
97	0x3cac59b0	0.02103886
98	0x3dc6fc5a	0.09716101
99	0x3de8f57f	0.1137495
100	0x3e9e2e92	0.30894905
101	0xbd46c1ff	-0.048524853
102	0x3e074055	0.13208134
103	0xbde06c6f	-0.10958182
104	0x3c8f027f	0.017457245
105	0x3d0a2630	0.033727825
106	0x3e162882	0.1466389
107	0x3e00ab3b	0.12565319
108	0xbcdf7f73	-0.027282452
109	0x3d388003	0.045043956
110	0xbd82e019	-0.063903995
111	0xbe3dec2b	-0.18547122
112	0x3cd1e9e6	0.025624227
113	0x3e4fb5b8	0.20284164
114	0x3e17a95b	0.14810698
115	0xbc6ff59e	-0.014645962
116	0x3e0d3480	0.13789558
117	0xbd213156	-0.03935369
118	0x3d1c30cc	0.038132474
119	0x3d3ac7b2	0.0456006
120	0x3d747933	0.059685897
121	0xbdc2cee2	-0.09512116
122	0x3d3d28af	0.046181377
123	0xbcc56df0	-0.024100274
124	0x3d839682	0.064251915
125	0xbdd16f85	-0.10226349
126	0x3c734638	0.014848284
127	0x3b73caac	0.003719966
128	0x3e67d69f	0.22640465
129	0x3d3d0a41	0.046152357
130	0x3e6cd0bd	0.23126502
131	0x3e436b6c	0.19083947
132	0x3d15510f	0.036454257
133	0xbe192910	-0.1495707
134	0x3ca22953	0.019795096
135	0x3d7ae93a	0.06125758
136	0x3e78bffb	0.24291985
137	0xbdd3e6ed	-0.1034678
138	0xbc392452	-0.011300163
139	0x3dfa09d0	0.12208903
140	0xbdc624e8	-0.09675008
141	0xbd83a9de	-0.06428884
142	0x3df73170	0.12069976
143	0xbb4ce2a2	-0.0031263013
144	0xbd6919a4	-0.05690922
145	0xbe1004b5	-0.14064296
146	0x3e1ccf0c	0.15313357
147	0x3e3d2723	0.1847196
148	0xbe027760	-0.1274085
149	0x3e728a1d	0.23685499
150	0x3e71a79f	0.23599099
151	0xbdde462c	-0.10853228
152	0x3d50bde8	0.05096236
153	0x3e564f27	0.20928632
154	0x3eb76c40	0.35824776
155	0x3d309517	0.043110933
156	0x3c12ead1	0.008967117
157	0xbddbff63	-0.107420705
158	0x3df98c7a	0.12184997
159	0xbdc4e2de	-0.09613584
160	0x3d96fdcc	0.07372627
161	0xbc0735f0	-0.008252606
162	0xbc98f757	-0.018672628
163	0x3ddaae28	0.10677749
164	0x3e9a98da	0.3019474
165	0xbce00ec4	-0.02735079
166	0x3dad90ef	0.084749095
167	0xbe0ef8aa	-0.13962045
168	0xbda65336	-0.0812134
169	0x3e25719f	0.16156624
170	0x3e384035	0.17993243
171	0x3e3b73d9	0.18305911
172	0xbe5fc1be	-0.2185125
173	0xbc9f2135	-0.019425014
174	0xbc93253a	-0.017962087
175	0xbe3a908e	-0.18219206
176	0x3dd71d6f	0.10503661
177	0x3e64fdc9	0.22362436
178	0x3d9bf6fd	0.07615469
179	0xbc1a4618	-0.009416126
180	0x3dbf4a65	0.093403615
181	0xbc9b0712	-0.01892427
182	0xbd06137e	-0.032733433
183	0x3e014461	0.1262374
184	0xbc4900be	-0.012268243
185	0xbc324241	-0.010880054
186	0x3e1dcc20	0.15409899
187	0x3d1e918c	0.038713023
188	0x3df74b72	0.12074937
189	0xbdbe03cd	-0.09278069
190	0x3deabc28	0.11461669
191	0x3c9be0a7	0.019028021
192	0xbd666aac	-0.056254074
193	0x3bd574fb	0.0065141893
194	0xbd2d1764	-0.042258635
195	0x3b612080	0.0034351647
196	0xbdb4e204	-0.088321716
197	0x3d7e4f28	0.062087208
198	0x3c8b8008	0.017028823
199	0xbd867bf0	-0.06566608
200	0x3c921bf8	0.017835602
201	0xbd999ae6	-0.07500248
202	0x3ca0df90	0.019637853
203	0xbd27a1c7	-0.040925767
204	0xbc96c030	-0.018402189
205	0x3d9cace2	0.07650162
206	0x3c216470	0.009850606
207	0xbcc2a4d2	-0.023760233
208	0xbdd35c0e	-0.103202924
209	0xbd60a868	-0.054848105
210	0xbda95080	-0.08267307
211	0x3a8a6073	0.0010557309
212	0x3c212060	0.009834379
213	0xbdb76b8c	-0.0895606
214	0xbe0b60b0	-0.13611102
215	0xbd607d25	-0.054806847
216	0xbcc4a960	-0.024006546
217	0xbb774d50	-0.003773529
218	0xbde3c580	-0.111216545
219	0x3cccc0e0	0.024994314
220	0xbd30cada	-0.043162204
221	0x3d4c310a	0.049851455
222	0xbd463fd3	-0.04840071
223	0xbca0b6f8	-0.019618496
224	0x3d345a94	0.044031695
225	0xbd7f7e2c	-0.062376186
226	0xbdd5f5a8	-0.10447246
227	0xbdb109df	-0.08644461
228	0xbdb299f4	-0.087207705
229	0x3d27161e	0.040792577
230	0xbd672834	-0.056434825
231	0x3d51a4b0	0.05118245
232	0x3ca8da70	0.020611972
233	0xbd9b428e	-0.07581054
234	0xbb5be880	-0.003355533
235	0xbdc79a28	-0.097462
236	0x3d824cf3	0.06362333
237	0xbb2234eb	-0.002475078
238	0xbd5be20f	-0.053682383
239	0xbddf391c	-0.108995646
240	0x3c6a4970	0.014299735
241	0x3c6a75bd	0.014310298
242	0xbdca644e	-0.09882413
243	0xbd0089f9	-0.03138158
244	0x3ccd0450	0.02502647
245	0xbdfc791a	-0.12327786
246	0x3ccc8c70	0.02496931
247	0xbdc4c0f6	-0.09607117
248	0xbd3a609c	-0.04550229
249	0xbbce3c03	-0.006293775
250	0x3d17245d	0.036899913
251	0x3d88cf32	0.06680144
252	0xbd79ea68	-0.061014563
253	0x3ce5c478	0.028047785
254	0xbd77819d	-0.060426343
255	0xbbfe7465	-0.00776534

fc2.bias f4 [32]
0	0x3a78dd74	0.00094934483
1	0x3dcaf124	0.09909275
2	0x3c549e67	0.012977219
3	0xbe06e2e2	-0.13172486
4	0x3da363f4	0.07978049
5	0x3dca2fb2	0.098723784
6	0x3ddf1338	0.108923376
7	0xbc64f084	-0.013973359
8	0x3db0e799	0.08637924
9	0x3cf8ffe3	0.030395454
10	0x3d8630ae	0.06552254
11	0x3ced5c5c	0.028974704
12	0x3de7ebdc	0.113242835
13	0x3e0026e3	0.12514834
14	0x3e05b19e	0.13056037
15	0x3e1cb5f2	0.15303782
16	0xbdf4c109	-0.11950881
17	0x3db1a9cd	0.08674965
18	0x3e0858df	0.13315152
19	0x3dd6de9f	0.1049168
20	0x3da5f2b3	0.08102932
21	0x3e00d8e4	0.12582737
22	0x3dc3ce71	0.0956086
23	0xbd6f3f59	-0.058410022
24	0xbdbc8c49	-0.09206445
25	0xbcb0c488	-0.021578088
26	0xbd232b9b	-0.039836507
27	0x3df1b782	0.118025795
28	0x3d5fe5b5	0.054662425
29	0x3e299741	0.16561605
30	0xbd1b9f2c	-0.037993595
31	0x3b24f40a	0.0025169873

fc3.weight f4 [1, 32]
0	0xbe54ac5b	-0.20768873
1	0x3e5360f8	0.2064246
2	0x3e1d65e9	0.15370907
3	0x3dc9d0a8	0.09854251
4	0xbe5f762e	-0.21822426
5	0xbe1998b1	-0.14999653
6	0x3e151b6d	0.14561243
7	0xbe65711c	-0.22406429
8	0x3e8427b2	0.25811535
9	0xbe4c56e8	-0.19955027
10	0xbe55b54b	-0.20869939
11	0xbe3aa564	-0.18227154
12	0xbe11b938	-0.14230812
13	0x3e8f6704	0.28008282
14	0x3e7ef182	0.24896815
15	0x3e05f22c	0.13080662
16	0x3df46698	0.11933631
17	0xbe67ec59	-0.22648753
18	0x3e64d6c0	0.22347546
19	0x3e250da4	0.16118485
20	0xbd829a81	-0.063771255
21	0xbe080169	-0.13281788
22	0x3e913900	0.283638
23	0xbe74b980	-0.23898888
24	0xbde562cf	-0.11200487
25	0xbdd9f242	-0.1064191
26	0xbe578fb4	-0.21050912
27	0x3e7c2d4c	0.24626654
28	0x3e7fdc6b	0.24986427
29	0xbe0fd3d9	-0.14045657
30	0xbde28207	-0.11059957
31	0xbe18f603	-0.14937596
