task2/final_model.pth (torch, 14341 bytes, 5 tensors)

fc1.weight f4 [64, 10]
-0.10455208 0.05131815 -0.1360575 0.027102666 -0.085851185 0.050685957 -0.24887678 -0.04011392
0.27979442 0.23774688 0.29596886 0.024882885 -0.02131553 0.09727868 0.27987435 -0.36017624
0.19527383 -0.30873635 -0.11351485 -0.11372523 -0.19073038 -0.14278045 -0.10436226 0.23040192
-0.041381042 0.45237502 0.14701527 0.02951798 0.2002823 0.051154498 -0.18721408 0.19952722
0.07836771 -0.29203176 0.06570043 0.4734984 0.11524479 0.30209053 -0.08282886 0.3648123
0.3013709 0.04793555 -0.18229328 0.07307317 -0.251176 -0.091221526 -0.04996967 0.15717359
-0.32339022 -0.047699805 0.2138859 0.3134417 -0.27381057 -0.049723033 -0.18624586 -0.15211166
0.33343455 0.11386615 -0.102356255 0.0007133403 -0.08578037 -0.32909748 0.023615062 -0.3230216
0.03826844 -0.33015376 0.21983607 0.2293091 -0.14813875 -0.29777557 0.12930632 0.11715116
-0.08264795 0.037803862 -0.41988286 -0.24106923 0.27114916 -0.14235371 -0.2492867 0.16342844
0.11706438 0.11476515 -0.10402965 -0.2304128 0.20316277 0.13774076 -0.42815766 -0.23561908
0.22142205 0.14317603 0.12506318 0.083798826 0.065022685 0.30021936 0.19817093 -0.24455029
0.03807547 -0.18835601 0.17867754 -0.3215412 -0.18526718 0.23696281 0.10499514 -0.09607616
0.07525938 0.28289285 -0.032586608 -0.17315134 -0.17742501 0.36326066 0.2345344 0.09580256
-0.04905454 0.1722573 0.32317576 -0.02052096 0.12999879 0.14669794 -0.25259227 -0.16932859
0.26774338 0.07056098 0.10745743 0.14948185 0.23551188 -0.306609 0.27163187 -0.10113887
0.19207308 -0.10655466 0.116383225 -0.08707281 -0.21370779 0.312255 -0.23487309 0.2540099
-0.134578 0.18780932 0.11223893 -0.19485138 -0.29048014 -0.15659253 0.10276401 -0.05768329
-0.09351027 0.19344965 0.17139226 -0.2227224 0.060010046 -0.18141684 0.18415023 0.22997607
0.3014775 -0.06111819 0.20947193 0.14204216 0.11477998 -0.14879048 0.028241847 -0.03363144
0.17639372 0.080257155 -0.24682741 0.10606232 0.34289828 0.35548973 0.03609929 0.124753796
-0.0036430412 -0.108698584 0.048051152 0.109606475 0.184891 -0.29660347 -0.33318558 -0.06420391
-0.1828312 -0.103074364 -0.3514528 0.16537534 0.008278951 -0.3380052 0.059329376 0.10742356
-0.13492699 0.10555996 -0.05630621 0.2853808 0.051676568 -0.3690798 0.081401 -0.37650633
-0.12278683 0.06545624 0.21781933 -0.058818907 -0.07829505 0.013552044 -0.0458052 -0.42698
-0.06314203 -0.13869354 0.2164152 0.24887739 -0.047312662 -0.12685256 -0.41006494 -0.31111056
0.34144476 0.09729255 -0.013605526 -0.18015923 -0.09277922 0.14664121 0.03463156 0.25424382
-0.22567709 0.21499676 0.2549411 0.2241875 -0.17444606 -0.35953605 -0.05352601 0.18279508
-0.17751497 -0.26045325 -0.16802327 0.16844733 -0.06904988 0.12106878 0.22990239 0.14638357
0.112470016 0.06556576 -0.10008726 -0.27986237 -0.13405563 -0.28365654 -0.30390546 -0.2228052
-0.07541797 0.3782872 -0.09452519 0.13639262 -0.17420186 -0.18293728 0.2041437 0.06245129
0.45566016 -0.352829 -0.0053725303 -0.19155277 -0.17176975 0.0832703 0.16655152 0.36017066
00000000: 671f d6bd fb32 523d a852 0bbe 6906 de3c
00000010: bfd2 afbd 149c 4f3d 8ed9 7ebe 7e4e 24bd
00000020: 3741 8f3e eb73 733e 3b89 973e 31d7 cb3c
00000030: e89d aebc 0b3a c73d b14b 8f3e 0569 b8be
00000040: ddf5 473e b112 9ebe 797a e8bd c6e8 e8bd
00000050: d34e 43be 0a35 12be e1bb d5bd 7bee 6b3e
00000060: 2b7f 29bd b39d e73e 2c8b 163e b1cf f13c
00000070: ce16 4d3e 6187 513d 0cb5 3fbe dd50 4c3e
00000080: 407f a03d 3085 95be f28d 863d 626e f23e
00000090: 7605 ec3d 9cab 9a3e 2da2 a9bd aec8 ba3e
000000a0: 494d 9a3e 1158 443d 17ab 3abe 63a7 953d
000000b0: 249a 80be 5ad2 babd ffac 4cbd 1df2 203e
000000c0: 6793 a5be df60 43bd e804 5b3e 6e7b a03e
000000d0: e630 8cbe 61aa 4bbd 3cb7 3ebe 29c3 1bbe
000000e0: efb7 aa3e a832 e93d 28a0 d1bd 75ff 3a3a
000000f0: 9ead afbd 777f a8be 6074 c13c 1663 a5be
00000100: 5ebf 1c3d ea09 a9be b51c 613e 01d0 6a3e
00000110: afb1 17be 0a76 98be e068 043e f3ec ef3d
00000120: 5443 a9bd 39d8 1a3d e3fa d6be dada 76be
00000130: 10d4 8a3e 2cc5 11be 0345 7fbe c959 273e
00000140: 73bf ef3d fe09 eb3d 7f0d d5bd 55f1 6bbe
00000150: e709 503e ea0b 0d3e 7b37 dbbe 2146 71be
00000160: 76bc 623e bd9c 123e 9010 003e b89e ab3d
00000170: 9d2a 853d 5ab6 993e 52ed 4a3e 646b 7abe
00000180: 06f5 1b3d 66e0 40be 3ff7 363e 0ca1 a4be
00000190: aeb6 3dbe 61a6 723e b107 d73d 94c3 c4bd
000001a0: 9721 9a3d 55d7 903e 8979 05bd 964e 31be
000001b0: e7ae 35be 4dfd b93e c929 703e 2234 c43d
000001c0: 6aed 48bd 3864 303e 4b77 a53e 931b a8bc
000001d0: 671e 053e fc37 163e c653 81be 7964 2dbe
000001e0: a915 893e 4682 903d a412 dc3d c511 193e
000001f0: 072a 713e dbfb 9cbe 5513 8b3e e521 cfbd
00000200: ceae 443e 5439 dabd 545a ee3d 3b53 b2bd
00000210: 37d6 5abe e3df 9f3e 9282 70be 960d 823e
00000220: d1ce 09be 1651 403e 86dd e53d 1f87 47be
00000230: d0b9 94be cb59 20be f075 d23d 5045 6cbd
00000240: 5082 bfbd aa17 463e 7481 2f3e 5711 64be
00000250: 18cd 753d 56c5 39be e191 3c3e d97e 6b3e
00000260: 425b 9a3e 1157 7abd cf7f 563e 8073 113e
00000270: c411 eb3d 885c 18be 725b e73c 1fc1 09bd
00000280: 8ea0 343e dd5d a43d 53c0 7cbe 3437 d93d
00000290: 5d90 af3e c002 b63e d9dc 133d eb7e ff3d
000002a0: 17c0 6ebb 5d9d debd 49d1 443d 5c79 e03d
000002b0: 1154 3d3e 69dc 97be 4d97 aabe 577d 83bd
000002c0: 1a38 3bbe a718 d3bd 9ff1 b3be 2758 293e
000002d0: 70a4 073c 040f adbe 5c03 733d e200 dc3d
000002e0: 4d2a 0abe d22f d83d 57a1 66bd 6f1d 923e
000002f0: cfaa 533d 07f8 bcbe 91b5 a63d 70c5 c0be
00000300: a977 fbbd ec0d 863d 080c 5f3e 18ec 70bd
00000310: 2859 a0bd 6409 5e3c 3c9e 3bbd 1f9d dabe
00000320: 9c50 81bd ae05 0ebe f29b 5d3e b7d9 7e3e
00000330: ecca 41bd a3e5 01be 08f4 d1be e249 9fbe
00000340: d9d1 ae3e 5141 c73d b6e9 5ebc a97b 38be
00000350: 0803 bebd 1d29 163e d3d9 0d3d 3f2c 823e
00000360: e517 67be 1c28 5c3e a487 823e 6891 653e
00000370: fda1 32be 1c15 b8be 173e 5bbd a22e 3b3e
00000380: 7cc6 35be 215a 85be 4b0e 2cbe 757d 2c3e
00000390: 066a 8dbd e9f2 f73d 886b 6b3e 93e5 153e
000003a0: ae56 e63d 5747 863d 8dfa ccbd 1f4a 8fbe
000003b0: e145 09be 6e3b 91be 7f99 9bbe 0c27 64be
000003c0: bd74 9abd dcae c13e 6c96 c1bd 82aa 0b3e
000003d0: f961 32be e953 3bbe 0c0b 513e edcc 7f3d
000003e0: 4a4c e93e 01a6 b4be 0d0c b0bb 6926 44be
000003f0: 69e4 2fbe 9e89 aa3d 7b8c 2a3e 4a68 b83e

fc1.bias f4 [64]
0.19472286 -0.029438391 0.17096363 -0.17334571 -0.07755011 -0.10771912 -0.16579163 0.17592397
-0.07619519 -0.16619119 0.0140755195 -0.16796583 -0.11762762 -0.19835906 -0.054945767 0.08580786
-0.15373045 0.06321538 0.05494948 0.12407163 -0.29686788 -0.110775806 0.1802944 0.021112075
-0.007261139 0.24857385 -0.06777329 0.292592 0.08353643 -0.12091864 0.21286412 0.14174886
-0.19450384 -0.30104804 -0.026305608 0.30897307 0.27311042 -0.01528194 0.18918099 0.22783796
0.17071576 0.23648055 -0.11670393 -0.045252316 -0.09887918 -0.026560636 -0.06260744 -0.23916553
0.10163705 0.13697352 0.10719689 0.114580356 -0.06309052 0.21842393 0.2933729 0.32950243
0.24700467 0.008895981 0.039232835 -0.22302318 -0.25711426 -0.17269428 0.17403674 0.13643083
00000000: 6e65 473e c828 f1bc 1711 2f3e 8a81 31be
00000010: 98d2 9ebd d89b dcbd 48c5 29be 6a25 343e
00000020: 390c 9cbd 062e 2abe 029d 663c 3cff 2bbe
00000030: c0e6 f0bd a31e 4bbe d00e 61bd 08bc af3d
00000040: 846b 1dbe 1177 813d b512 613d 4419 fe3d
00000050: 11ff 97be 6dde e2bd 189f 383e 3bf3 ac3c
00000060: d9ee edbb 258a 7e3e b9cc 8abd 9ece 953e
00000070: 2615 ab3d 31a4 f7bd 0df9 593e 9d26 113e
00000080: 042c 47be f822 9abe dc7e d7bc b831 9e3e
00000090: 21d5 8b3e 1a61 7abc a9b8 413e 5b4e 693e
000000a0: 1dd0 2e3e f527 723e 7802 efbd 7e5a 39bd
000000b0: 2b81 cabd b195 d9bc 5438 80bd cfe7 74be
000000c0: 1627 d03d c942 0c3e 0b8a db3d 1ba9 ea3d
000000d0: 9a35 81bd 86aa 5f3e f934 963e 8bb4 a83e
000000e0: cbee 7c3e 73c0 113c 9cb2 203d 3060 64be
000000f0: 7ba4 83be c5d6 30be b036 323e 86b4 0b3e

fc2.weight f4 [32, 64]
-0.15569672 -0.0020237532 -0.12778349 0.03416582 0.036902737 0.12196039 0.1277441 -0.06110197
-0.10345795 0.13460141 0.03344973 -0.013470563 0.12417765 -0.11103256 0.071288675 -0.06304533
-0.119907826 0.19546036 -0.078418754 -0.12062278 0.08081781 0.0005857741 -0.21969324 0.042760827
-0.022177722 0.043849874 -0.3176221 -0.13306266 -0.079608224 0.1014197 0.07758089 0.080494694
-0.05008964 0.03384964 -0.07173985 -0.10579494 -0.091919385 0.18290001 0.07432557 -0.0054610204
0.10418199 -0.069081895 -0.15075876 -0.18368278 -0.0309157 0.11552752 -0.07822867 0.08972382
-0.0080302935 -0.046369996 -0.07977616 0.12746167 -0.017537648 -0.061059166 0.13917261 0.04151382
0.121343985 0.07993291 -0.13218606 -0.039759547 -0.12071602 -0.005653044 0.00645624 0.1380501
0.29642096 0.040896226 0.112719804 0.082908675 0.041627027 -0.063234575 -0.08294102 -0.09258224
0.07343068 -0.12227568 0.13715874 0.04136531 0.06540511 0.027981924 0.106399104 -0.0019154866
-0.08011904 -0.15622197 0.06721906 0.098192394 -0.12455739 0.16228917 0.28076324 -0.058818627
-0.1389065 0.1383341 0.23113124 0.16901565 -0.10207663 0.01882577 -0.037139073 -0.14995274
-0.02728417 0.02103886 0.11756058 0.083224624 0.34045458 -0.019004403 0.12940077 -0.08816846
0.03623492 0.013663276 0.17970572 0.21213669 -0.05871632 0.04409917 -0.021920329 -0.2512697
0.120035425 0.2179604 0.17151183 -0.0024407092 0.13911991 -0.089171335 0.041482527 0.049283817
0.019162016 -0.10173942 0.045558974 -0.024100274 0.064251915 -0.172278 0.020953037 0.06643916
0.3014186 0.04563967 0.22249956 0.1944356 0.026507193 -0.17627753 -0.041613966 0.051754825
0.21484248 -0.11586422 -0.028111055 0.08560122 -0.069583505 -0.10023879 0.12069976 -0.028889896
-0.095395006 -0.17080073 0.12867947 0.16250981 -0.18252927 0.18572609 0.26978374 -0.13810913
-0.00048825424 0.16610897 0.3860095 0.0030476507 -0.02240643 -0.10719183 0.09561986 -0.10489789
0.085739 -0.008252606 -0.030454965 0.10341 0.3271474 -0.027332738 0.07533763 -0.12113901
-0.0729582 0.10457263 0.20222837 0.2651727 -0.2611779 -0.033975974 0.024718245 -0.25005344
0.20541988 0.22730023 0.09891817 -0.003626777 0.10715002 -0.06151791 -0.028222151 0.135699
-0.048670664 -0.0328943 0.16083099 0.038713023 0.12074937 -0.11465783 0.1029856 0.04686277
-0.056254074 0.0065141893 -0.042258635 0.0034351647 -0.088321716 0.062087208 0.017028823 -0.06566608
0.017835602 -0.07500248 0.019637853 -0.040925767 -0.018402189 0.07650162 0.009850606 -0.023760233
-0.103202924 -0.054848105 -0.08267307 0.0010557309 0.009834379 -0.0895606 -0.13611102 -0.054806847
-0.024006546 -0.003773529 -0.111216545 0.024994314 -0.043162204 0.049851455 -0.04840071 -0.019618496
0.044031695 -0.062376186 -0.10447246 -0.08644461 -0.087207705 0.040792577 -0.056434825 0.05118245
0.020611972 -0.07581054 -0.003355533 -0.097462 0.06362333 -0.002475078 -0.053682383 -0.108995646
0.014299735 0.014310298 -0.09882413 -0.03138158 0.02502647 -0.12327786 0.02496931 -0.09607117
-0.04550229 -0.006293775 0.036899913 0.06680144 -0.061014563 0.028047785 -0.060426343 -0.00776534
00000000: f66e 1fbe f2a0 04bb add9 02be 75f1 0b3d
00000010: 5327 173d 5ec6 f93d 59cf 023e 0f46 7abd
00000020: c3e1 d3bd f4d4 093e 9602 093d a3b3 5cbc
00000030: da50 fe3d 0a65 e3bd ccff 913d e91d 81bd
00000040: 3c92 f5bd c326 483e 039a a0bd 1309 f7bd
00000050: cf83 a53d a28e 193a 44f7 60be fa25 2f3d
00000060: 0eae b5bc ed9b 333d 5d9f a2be 9441 08be
00000070: a309 a3bd 22b5 cf3d bbe2 9e3d 67da a43d
00000080: cb2a 4dbd eca5 0a3d 58ec 92bd 04ab d8bd
00000090: 3b40 bcbd 244a 3b3e 0138 983d 5cf2 b2bb
000000a0: 5e5d d53d cf7a 8dbd 8160 1abe 5717 3cbe
000000b0: ec42 fdbc b199 ec3d 5a36 a0bd 1fc1 b73d
000000c0: 7e91 03bc 77ee 3dbd af61 a3bd 5085 023e
000000d0: 1dab 8fbc 2d19 7abd 4483 0e3e 650a 2a3d
000000e0: 3283 f83d deb3 a33d c85b 07be e8da 22bd
000000f0: f639 f7bd 2c3d b9bb de8e d33b 015d 0d3e
00000100: 7dc4 973e cd82 273d a4d9 e63d 06cc a93d
00000110: 1a81 2a3d 2181 81bd fbdc a9bd c29b bdbd
00000120: d362 963d ac6b fabd 5773 0c3e ac6e 293d
00000130: 1df3 853d 593a e53c c6e7 d93d 1111 fbba
00000140: 7415 a4bd a7f8 1fbe 26aa 893d 1819 c93d
00000150: f217 ffbd 222f 263e 33c0 8f3e cdeb 70bd
00000160: 813d 0ebe 74a7 0d3e abad 6c3e 7012 2d3e
00000170: 8d0d d1bd 8038 9a3c 241f 18bd 368d 19be
00000180: 0d83 dfbc b059 ac3c 9ac3 f03d ac71 aa3d
00000190: 1050 ae3e 1faf 9bbc a381 043e aa91 b4bd
000001a0: 116b 143d efdb 5f3c c704 383e 5c3a 593e
000001b0: 8680 70bd 55a1 343d 4392 b3bc 6ca6 80be
000001c0: 22d5 f53d 0331 5f3e cca0 2f3e 4ef4 1fbb
000001d0: 7375 0e3e 769f b6bd 95e9 293d d4dd 493d
000001e0: a9f9 9c3c c25c d0bd 0c9c 3a3d f06d c5bc
000001f0: 8296 833d a569 30be b4a5 ab3c 4111 883d
00000200: 8a53 9a3e aaf0 3a3d edd6 633e 201a 473e
00000210: 9d25 d93c 1982 34be 6873 2abd defc 533d
00000220: abff 5b3e 384a edbd 2849 e6bc b14f af3d
00000230: cc81 8ebd ff49 cdbd 7031 f73d 81aa ecbc
00000240: 755e c3bd 63e6 2ebe 8dc4 033e f968 263e
00000250: f4e8 3abe fb2e 3e3e 1821 8a3e 7b6c 0dbe
00000260: 60fc ffb9 7818 2a3e 0aa3 c53e 18bb 473b
00000270: b18d b7bc 6487 dbbd 58d4 c33d b4d4 d6bd
00000280: ee97 af3d f035 07bc b17c f9bc 9fc8 d33d
00000290: dd7f a73e e8e8 dfbc 9e4a 9a3d bb17 f8bd
000002a0: 1c6b 95bd 2d2a d63d f414 4f3e b7c4 873e
000002b0: 1cb9 85be 642a 0bbd eb7d ca3c 0107 80be
000002c0: 9759 523e 64c1 683e 9c95 ca3d 39af 6dbb
000002d0: 7871 db3d 34fa 7bbd 2432 e7bc aef4 0a3e
000002e0: e45a 47bd 2cbc 06bd e1b0 243e 8c91 1e3d
000002f0: 724b f73d b9d1 eabd 1dea d23d 2df3 3f3d
00000300: ac6a 66bd fb74 d53b 6417 2dbd 8020 613b
00000310: 04e2 b4bd 284f 7e3d 0880 8b3c f07b 86bd
00000320: f81b 923c e69a 99bd 90df a03c c7a1 27bd
00000330: 30c0 96bc e2ac 9c3d 7064 213c d2a4 c2bc
00000340: 0e5c d3bd 68a8 60bd 8050 a9bd 7360 8a3a
00000350: 6020 213c 8c6b b7bd b060 0bbe 257d 60bd
00000360: 60a9 c4bc 504d 77bb 80c5 e3bd e0c0 cc3c
00000370: daca 30bd 0a31 4c3d d33f 46bd f8b6 a0bc
00000380: 945a 343d 2c7e 7fbd a8f5 d5bd df09 b1bd
00000390: f499 b2bd 1e16 273d 3428 67bd b0a4 513d
000003a0: 70da a83c 8e42 9bbd 80e8 5bbb 289a c7bd
000003b0: f34c 823d eb34 22bb 0fe2 5bbd 1c39 dfbd
000003c0: 7049 6a3c bd75 6a3c 4e64 cabd f989 00bd
000003d0: 5004 cd3c 1a79 fcbd 708c cc3c f6c0 c4bd
000003e0: 9c60 3abd 033c cebb 5d24 173d 32cf 883d
000003f0: 68ea 79bd 78c4 e53c 9d81 77bd 6574 febb

fc2.bias f4 [32]
0.0016980196 0.09115497 0.0037568554 -0.13172486 0.07496302 0.10243103 0.10240672 0.00532489
0.09732529 0.042267323 0.06676559 0.035806626 0.11702551 0.128472 0.14296485 0.14591977
-0.118645035 0.093194954 0.12630345 0.1471693 0.10829314 0.15169935 0.09429801 -0.04868871
-0.06897434 -0.014147049 -0.0077840574 0.115181305 0.07577862 0.17743485 -0.041792847 0.0033422452
00000000: 1590 de3a 75af ba3d 9335 763b e2e2 06be
00000010: 3686 993d 5cc7 d13d 9dba d13d 6a7c ae3b
00000020: 7b52 c73d 8020 2d3d 66bc 883d f8a9 123d
00000030: 12ab ef3d 2a8e 033e 6165 123e fe6b 153e
00000040: 2bfc f2bd ffdc be3d b155 013e 8db3 163e
00000050: cbc8 dd3d 1357 1b3e 511f c13d d06d 47bd
00000060: 6b42 8dbd 06c9 67bc 6811 ffbb 2de4 eb3d
00000070: d231 9b3d 7bb1 353e fa2e 2bbd 9209 5b3b

fc3.weight f4 [1, 32]
-0.20691338 0.22992155 0.15299511 0.09854251 -0.21512602 -0.14220932 0.14825696 -0.24968982
0.30135286 -0.23072866 -0.19029568 -0.20192672 -0.13868949 0.31730354 0.2775605 0.14847633
0.2102792 -0.22767296 0.24778207 0.25027865 -0.08637761 -0.1653789 0.32890695 -0.24471913
-0.16569705 -0.11570336 -0.24152993 0.2914688 0.29731268 -0.16027066 -0.11253458 -0.14476019
00000000: 1ae1 53be 8e70 6b3e c0aa 1c3e a8d0 c93d
00000010: ff49 5cbe 529f 11be acd0 173e b0ae 7fbe
00000020: ec4a 9a3e 2244 6cbe dfdc 42be e1c5 4ebe
00000030: 9e04 0ebe 9c75 a23e 691c 8e3e 2e0a 183e
00000040: 6e53 573e 1a23 69be 95ba 7d3e 8624 803e
00000050: bfe6 b0bd 1659 29be 7e66 a83e a797 7abe
00000060: 7dac 29be e2f5 ecbd 9f53 77be 663b 953e
00000070: 5e39 983e fe1d 24be 8878 e6bd 043c 14be
